scripts/Sparse/stock_price_model.pth (torch, 47852 bytes, 6 tensors)

lstm.weight_ih_l0 f4 [200, 4]
0	0xbd85001d	-0.06494162
1	0x3dc5f67f	0.09666156
2	0x3e1ccd27	0.15312634
3	0xbde9db73	-0.1141881
4	0xbcb95ad5	-0.02262632
5	0x3d399858	0.045311302
6	0x3d4e4523	0.050358903
7	0xbd9501da	-0.07275744
8	0xbced47b2	-0.028964851
9	0xbc8fe27c	-0.01756405
10	0x3ad43a16	0.0016191627
11	0xbd827dca	-0.063716486
12	0xbd8681e4	-0.065677434
13	0x3e07014b	0.13184087
14	0x3e1ac79b	0.15115206
15	0x3cf7c9c6	0.03024758
16	0xbdd560fa	-0.104188874
17	0x3d6ece51	0.058302227
18	0xbd445f16	-0.047942244
19	0x3d9242b5	0.071416296
20	0x3d98caec	0.07460579
21	0xbd8cb216	-0.06869905
22	0xbc7de717	-0.015496991
23	0xbbc79f45	-0.0060919845
24	0xbd463784	-0.048392788
25	0x3dda9751	0.106733926
26	0x3da59666	0.08085327
27	0x3d055cb0	0.032559097
28	0xbc79f759	-0.015256726
29	0xbdc1bcd5	-0.09459845
30	0xbd8b2b65	-0.06795386
31	0xbad93de1	-0.0016574227
32	0xbd9a542d	-0.075355865
33	0xbd7a968d	-0.061178733
34	0x3a42cbed	0.00074309
35	0x3d359060	0.04432714
36	0xbca8ab4b	-0.020589491
37	0x3ca2266b	0.01979371
38	0x3e01c9a8	0.12674582
39	0xbdd084b9	-0.10181565
40	0x3dd37c0b	0.10326394
41	0x3e130976	0.14359078
42	0x3df0f2b9	0.11765046
43	0x3d8c3b8b	0.068472944
44	0x3d9bb15c	0.07602188
45	0xbd0c9e48	-0.034330636
46	0xbe00e8e6	-0.12588844
47	0xbcd64410	-0.026155502
48	0x3d69dede	0.05709731
49	0x3d4df2f8	0.05028054
50	0x3dcaa8dd	0.09895489
51	0x3d6f1285	0.05836727
52	0x3d1bf6e3	0.038077246
53	0xbd7ed9ac	-0.062219307
54	0x3db1bce0	0.08678603
55	0x3e314cfd	0.17314525
56	0xbdedb630	-0.11607015
57	0xbe31fbbd	-0.17381187
58	0xbcf68d28	-0.030096605
59	0xbdf57dbc	-0.119868726
60	0xbe20be8b	-0.15697686
61	0x3cd2a65c	0.025714092
62	0x3da59ba1	0.080863245
63	0x3daaf011	0.0834657
64	0x3de902cc	0.113774866
65	0x3d658f80	0.056045055
66	0x3e315353	0.17316942
67	0x3b2fe7be	0.002684101
68	0xbcb3c1c9	-0.02194299
69	0x3dc0fe2f	0.09423482
70	0x3db40f9a	0.08792038
71	0x3da0c6f7	0.078504495
72	0xbd132d01	-0.03593159
73	0xbd483e08	-0.048887283
74	0x3db75efa	0.08953662
75	0x3dee12f2	0.11624707
76	0x3dae946c	0.08524403
77	0x3d9ba107	0.07599073
78	0xbde179dc	-0.11009571
79	0xbd9a9566	-0.07548027
80	0xbd76856a	-0.060185827
81	0xbdb19647	-0.08671241
82	0x3ce25984	0.027630575
83	0xbe1a7890	-0.15085053
84	0x3dd9842c	0.10620913
85	0x3c7bc66f	0.0153671345
86	0x3d9f047a	0.07764526
87	0xbdbe5df3	-0.09295263
88	0x3dcab0f3	0.09897032
89	0xbe03fa96	-0.1288856
90	0xbd8a52d7	-0.06754082
91	0xbdfff9f6	-0.12498848
92	0x3d863355	0.065527596
93	0x3dd51be0	0.10405707
94	0xbcc758a4	-0.02433426
95	0x3ca724ef	0.020403353
96	0xbbde0097	-0.0067749727
97	0xbdb04eb2	-0.0860876
98	0xbc80dbbd	-0.01572978
99	0x3dea5a16	0.11442964
100	0x3d56cb65	0.052440066
101	0x3dba1ea5	0.09087876
102	0xbd5071fe	-0.05088996
103	0x3d5a9371	0.053363267
104	0xbc36de28	-0.011161365
105	0x3df376aa	0.11887868
106	0x3d668b8f	0.056285437
107	0xbd858d82	-0.06521131
108	0xbda0782f	-0.07835423
109	0x3e06d72e	0.13168022
110	0x3d508f5f	0.05091798
111	0x3d9d130a	0.07669647
112	0x3ba1ef58	0.004941862
113	0xbd312684	-0.043249622
114	0xbd860b9e	-0.065451846
115	0xbdd285de	-0.102794394
116	0xbdd0515c	-0.10171768
117	0x3c9f3dc4	0.019438632
118	0xbd1a5dc1	-0.037687067
119	0x3d8c7e54	0.06860033
120	0x3d8b7979	0.068102784
121	0xbd4097fa	-0.047019936
122	0x3dfa408b	0.12219342
123	0x3e1edd3d	0.15514083
124	0xbd3a74ca	-0.045521535
125	0x3d771e09	0.060331378
126	0xbd54b317	-0.051928606
127	0x3dae033b	0.0849671
128	0x3d1f5a6c	0.038904592
129	0x3de20e34	0.11037865
130	0xbdc6c5a1	-0.097056635
131	0x3e213ac5	0.15745075
132	0x3df4a74f	0.11945974
133	0x3de74cd6	0.11293952
134	0x3db1fff3	0.086913966
135	0x3bccd37a	0.006250796
136	0x3d5440bb	0.051819544
137	0x3d05c184	0.032655254
138	0x3d4867a1	0.048926953
139	0x3bfa7a7e	0.0076439967
140	0xbd7f4102	-0.062317856
141	0x3e040b06	0.1289483
142	0xbda61b21	-0.08110643
143	0x3dfee467	0.12445908
144	0xbd15fb1a	-0.036616422
145	0xbdf89302	-0.121374145
146	0xbd81738d	-0.06320868
147	0x3d0e9b1f	0.034815904
148	0xbd7258b8	-0.05916664
149	0xbda7293d	-0.081621625
150	0xbd91e366	-0.07123451
151	0xbe130b42	-0.14359763
152	0x3b573d0c	0.0032842783
153	0x3d4115ff	0.047140118
154	0x3d328934	0.04358788
155	0x3df0e8ad	0.117631294
156	0xbd7bb2bc	-0.06144975
157	0x3dc098b5	0.094041266
158	0x3d9eab91	0.077475674
159	0xbd31e06c	-0.043426916
160	0x3da6e679	0.08149428
161	0x3d485eb1	0.04891843
162	0x3c2deacf	0.010615065
163	0x3da84d22	0.08217837
164	0x3e2d5b1c	0.16929287
165	0xbbb9823d	-0.0056612776
166	0xbd1a9adc	-0.03774534
167	0xbdc9f1bf	-0.098605625
168	0xbddf54a2	-0.10904814
169	0xbd4a729e	-0.049425714
170	0xbdc07bac	-0.093985885
171	0x3d971120	0.07376313
172	0x3dea5584	0.11442092
173	0x3dfefafd	0.12450216
174	0x3d90917a	0.070589975
175	0x3e232312	0.15931347
176	0x3c4a3993	0.012342828
177	0x3de7c367	0.11316567
178	0x3d7a9425	0.061176438
179	0x3dd9cbd5	0.10634581
180	0x3d391218	0.04518327
181	0xbc3799e4	-0.011206124
182	0x3d016c80	0.031597614
183	0x3da0d827	0.07853728
184	0x3cfd6efa	0.030936707
185	0x3dc4b221	0.09604288
186	0x3e25381a	0.16134682
187	0xbdb655d2	-0.08903088
188	0x3e2e0a14	0.16996032
189	0x3d791dd2	0.060819454
190	0x3d609e4f	0.054838475
191	0x3e0508cb	0.12991636
192	0xba05ecc3	-0.00051088276
193	0xbd7bd6f5	-0.061484296
194	0x3c2fef4f	0.010738208
195	0x3e0ee15e	0.13953158
196	0xbd6e4fd1	-0.058181588
197	0xbdc0b849	-0.094101496
198	0xbd947edc	-0.07250759
199	0x3c05e13a	0.008171374
200	0x3dc93ad1	0.098256715
201	0x3e1a7d3d	0.15086837
202	0x3d6fa6ab	0.058508556
203	0xbcebe2c1	-0.028794648
204	0x3d8b276d	0.06794629
205	0xbde0e0e9	-0.10980398
206	0x3dcc5556	0.09977214
207	0xbe047662	-0.12935784
208	0x3dbd7b90	0.09252083
209	0xbd993d2f	-0.07482373
210	0x3e02ca19	0.12772407
211	0x3e2ac3e9	0.16676296
212	0x3db12e1d	0.086513735
213	0xbdbb31d9	-0.09140367
214	0xbd445a7b	-0.04793785
215	0xbd9c7a38	-0.07640499
216	0x3da556fb	0.08073231
217	0xbd1fa9a1	-0.03898013
218	0x3d25b5f6	0.040456735
219	0x3e16d63e	0.14730164
220	0xbd2eb5d4	-0.042653874
221	0xbda1a5ec	-0.07892975
222	0xbcf7ae09	-0.030234354
223	0xbcea7419	-0.028619813
224	0x3dadd393	0.0848762
225	0xbcb2d000	-0.021827698
226	0xbd56e490	-0.052464068
227	0x3d4e66de	0.05039107
228	0xbdcf6e0b	-0.10128411
229	0xbe10e537	-0.14149939
230	0x3caafd89	0.020872848
231	0x3d8c5bf0	0.06853473
232	0xbdbedf21	-0.09319902
233	0x3dce4e97	0.100735836
234	0x3da9736d	0.08273969
235	0xbd2b21eb	-0.041780394
236	0x3d9b19aa	0.075732544
237	0x3de3b5e8	0.1111868
238	0xbda871c3	-0.08224823
239	0x3dd29981	0.10283185
240	0xbdd091f5	-0.10184089
241	0xbda013ca	-0.078162745
242	0x3e0234dc	0.12715477
243	0x3d75c5c1	0.060003046
244	0xbcdb0326	-0.0267349
245	0x3c969763	0.018382734
246	0x3d2c1bc8	0.04201868
247	0xbdfa9eed	-0.12237344
248	0xbd827bbe	-0.06371258
249	0xbde6a3f7	-0.112617426
250	0x3d9584ea	0.07300742
251	0xbdd68060	-0.10473704
252	0xbdc042b1	-0.093877204
253	0x3e08ace7	0.13347207
254	0x3e1430f9	0.14471807
255	0x3c01b260	0.007916063

lstm.weight_hh_l0 f4 [200, 50]
0	0x3e086667	0.13320313
1	0x3bbdaa9c	0.0057881605
2	0x38fa87f0	0.00011946249
3	0x3a137730	0.00056253653
4	0x38f2e510	0.000115821254
5	0xbb3aea11	-0.0028520862
6	0x39d53125	0.0004066314
7	0xb951e65b	-0.00020017607
8	0x3967cde7	0.00022106581
9	0x3e19843b	0.14991848
10	0x3960b981	0.0002143141
11	0xba2de0a6	-0.00066329015
12	0xbe21e4c6	-0.15809926
13	0xb9dfe8ef	-0.00042707424
14	0xb957b94f	-0.0002057303
15	0x3b045b95	0.0020196189
16	0x39cc5324	0.00038971857
17	0x3ad48bf3	0.0016216025
18	0xb7cb64d3	-2.4246436e-05
19	0x3add8409	0.0016900311
20	0x3b4bfae4	0.0031124884
21	0x3a931773	0.0011222198
22	0x38b282df	8.512078e-05
23	0x3833ee4f	4.2898868e-05
24	0xb9a0af33	-0.00030648112
25	0xbe13bc08	-0.14427197
26	0xb94c8458	-0.00019504258
27	0x39cd7c2a	0.00039193156
28	0xbe08a62f	-0.13344644
29	0xb8a3d987	-7.812963e-05
30	0x3e19dda8	0.15025961
31	0x39cc231d	0.00038936074
32	0xb815ce15	-3.5716297e-05
33	0xbe0d7d91	-0.13817431
34	0x399957a9	0.00029247746
35	0x38626ad1	5.398208e-05
36	0x3a9ad911	0.0011813958
37	0xba7fd577	-0.0009759287
38	0x3b4fafbd	0.0031690442
39	0xb9a62381	-0.0003168844
40	0x37fa1b0e	2.981492e-05
41	0xb982ef62	-0.00024973886
42	0xba0f3943	-0.000546355
43	0x3ac80b44	0.0015262146
44	0xbe323e00	-0.17406464
45	0xbe092d4b	-0.13396184
46	0xb96888f2	-0.0002217626
47	0xbdff2739	-0.12458653
48	0xb8a67edd	-7.939127e-05
49	0xb7fcb18a	-3.0123414e-05
50	0xbb089913	-0.0020843192
51	0x3c31e496	0.010857722
52	0x3a7ae9d7	0.0009571588
53	0x3a5286bc	0.0008030941
54	0x3b64ef8c	0.003493282
55	0xbc3cdc67	-0.011527157
56	0x3bb9d148	0.0056707
57	0x3aed1676	0.0018088359
58	0x3e166062	0.14685205
59	0x3c87c686	0.016574156
60	0xb8584a6b	-5.156772e-05
61	0xbb2c4c77	-0.0026290694
62	0x3c758eae	0.014987631
63	0xbbd35d99	-0.0064503667
64	0x3bcf39c9	0.006324027
65	0x3e305dbf	0.17223261
66	0x3e104328	0.14088118
67	0x39d80e45	0.00041209362
68	0x3b012c19	0.0019710122
69	0x3c2822a2	0.010262163
70	0x3e3827d7	0.17983948
71	0x39dfdd64	0.00042698823
72	0x37eeeb75	2.8481454e-05
73	0x3bcbb8b0	0.006217085
74	0xba0bf88f	-0.00053394673
75	0xbe26358a	-0.16231361
76	0xbb19b29b	-0.0023452404
77	0x3b0d8937	0.002159668
78	0x3bf4f03e	0.007474928
79	0x3b4d6770	0.003134217
80	0xbac5ac02	-0.001508117
81	0x3bd4b72c	0.0064915624
82	0x3b0ce915	0.0021501232
83	0x3b551ea1	0.0032519477
84	0x3b3381d0	0.0027390607
85	0xbe0be56b	-0.13661735
86	0xbdf313dd	-0.11869023
87	0xbc646adc	-0.013941493
88	0x3bca1e82	0.0061681876
89	0x3a0f28c6	0.0005461093
90	0x3afac977	0.0019133528
91	0xb9517f4f	-0.0001997922
92	0xbbe0d1c4	-0.0068609435
93	0x3ca54ed7	0.020179195
94	0x3cc6fad7	0.024289532
95	0x3b92f33b	0.0044845617
96	0xbaac9a0b	-0.0013168467
97	0xbdfe42fc	-0.1241512
98	0xbe0fbaac	-0.14036053
99	0xbe06995f	-0.13144444
100	0xbdf208ec	-0.11818108
101	0x3e0bfac1	0.13669874
102	0x39356e75	0.00017302654
103	0x3a0cd30b	0.0005372024
104	0x3978bcf8	0.0002372152
105	0xbb51e14e	-0.0032025161
106	0x3a066af8	0.0005127634
107	0xb8c66de6	-9.461846e-05
108	0x39b1d261	0.00033916815
109	0x3a5ed6e7	0.0008500651
110	0x3978ee16	0.00023739817
111	0xba149984	-0.00056686276
112	0x3a64192d	0.0008701261
113	0xba01f181	-0.00049569464
114	0x3940e2eb	0.0001839508
115	0xbe315a34	-0.17319566
116	0x39f1573c	0.00046032097
117	0x3a6419ee	0.00087013736
118	0x37091ff6	8.173278e-06
119	0x3af84223	0.0018940609
120	0x3b7f7c04	0.0038983831
121	0x3a29e92b	0.0006481583
122	0xb7d77949	-2.5686475e-05
123	0x388cd639	6.715622e-05
124	0xb9af97f8	-0.00033491827
125	0xb97d515e	-0.00024158272
126	0xb9862376	-0.00025584892
127	0x39c10304	0.00036814075
128	0x3aabfa0f	0.0013120788
129	0xb84d6004	-4.896523e-05
130	0xb983eed8	-0.0002516422
131	0x3a03fc92	0.00050348893
132	0x38883b10	6.4959866e-05
133	0xbe104709	-0.14089598
134	0x398effe4	0.00027275004
135	0x38c6ca30	9.479036e-05
136	0x3a60d327	0.0008576386
137	0x3e0db622	0.1383901
138	0x3b20cb97	0.0024535412
139	0xb983f374	-0.00025167654
140	0x381dee18	3.765346e-05
141	0xb991f9f6	-0.0002784279
142	0xba12071e	-0.00055705186
143	0x3ad78039	0.0016441412
144	0x3b1c7fe7	0.0023879947
145	0x3a7aeb15	0.0009571773
146	0xb9802f39	-0.00024449246
147	0xb8b231f6	-8.4970074e-05
148	0x3dfa03c6	0.12207751
149	0xbe0c652a	-0.13710466
150	0xba07e4fd	-0.0005183963
151	0x3bbe5154	0.005808035
152	0x39bd5d93	0.00036118607
153	0x3a3a069e	0.0007096323
154	0x39df4fd0	0.0004259334
155	0xbb3e6f89	-0.002905818
156	0xbe074b54	-0.13212329
157	0xb6ff46cc	-7.607834e-06
158	0x39de85e1	0.00042442887
159	0x399a1c9a	0.0002939448
160	0x39da942d	0.000416906
161	0xb8c96139	-9.602536e-05
162	0x3a3b4e5d	0.0007145161
163	0xba230ec2	-0.00062201556
164	0x39cf164c	0.0003949873
165	0x3df2c041	0.11853076
166	0x3a2a30a8	0.00064922357
167	0x3af4f0ee	0.0018687525
168	0xb99e81df	-0.0003023287
169	0xbdfb73ea	-0.12277968
170	0x3b247818	0.0025095996
171	0x3a48a222	0.0007653554
172	0xb94fb1f6	-0.00019807354
173	0xb992f1c5	-0.00028027422
174	0xba218b5c	-0.0006162429
175	0x398418eb	0.00025195567
176	0xb9c10531	-0.00036815697
177	0xbe053645	-0.13008983
178	0x3a1111d8	0.000553397
179	0xb9a14a5f	-0.00030763724
180	0xb9e735f6	-0.00044099957
181	0x3a0d0bff	0.00053805107
182	0x394ad24c	0.00019342563
183	0x39f9c65d	0.00047640773
184	0xbe0e6be2	-0.13908342
185	0x3e164a67	0.1467682
186	0x3aab8c87	0.0013088145
187	0xbdfaeb5c	-0.122519225
188	0x3b485b49	0.0030571988
189	0xba0ca3dc	-0.0005364993
190	0xb96faa2c	-0.0002285621
191	0xbdedbf57	-0.11608761
192	0xba15595c	-0.00056972145
193	0x3ad1a442	0.0015994387
194	0x3ad53e68	0.0016269209
195	0x3aaf2d41	0.0013364927
196	0xb9d4350f	-0.00040475323
197	0x3ded8324	0.11597279
198	0xb9ad8508	-0.00033096247
199	0x397d97a6	0.00024184454
200	0xbb103ebc	-0.002201005
201	0x3c809283	0.015694862
202	0x3ac516ba	0.001503668
203	0x3b32f8b8	0.0027308892
204	0x3b0a49ce	0.002110112
205	0x3e0c2edb	0.13689749
206	0xbe0baff5	-0.13641341
207	0x3a7d59df	0.0009664576
208	0x3b1016a8	0.002198616
209	0x3a5e603a	0.0008482967
210	0x3aae5b17	0.0013302293
211	0xba75673d	-0.0009361392
212	0x3b6f1e52	0.0036486578
213	0xbb109435	-0.0022060995
214	0x3b362c04	0.0027797231
215	0xbdd7a8db	-0.105302535
216	0x3b1430f5	0.0022612188
217	0x3aa658d8	0.0012691272
218	0x3e28804a	0.16455188
219	0x3bb9a581	0.0056654816
220	0x3c7a0ae5	0.0152613865
221	0xbe1e7f92	-0.15478352
222	0xb9d3d798	-0.00040405686
223	0xb9d3f3ee	-0.00040426798
224	0xbb071bf7	-0.0020616034
225	0x39c9ecba	0.00038514083
226	0xbab8cab1	-0.0014098493
227	0xb9bb8bb5	-0.0003577151
228	0x3b1bda5a	0.002378127
229	0xba8604db	-0.0010224836
230	0xbad023ac	-0.0015879772
231	0x3b3bbbc3	0.002864585
232	0xbe064ce0	-0.13115263
233	0x3ae9a8a3	0.0017826747
234	0x3b46cf21	0.003033586
235	0xbaaecdc3	-0.0013336468
236	0x3b20a02f	0.002450954
237	0xbad58a1e	-0.0016291772
238	0x3c0ceab4	0.008600879
239	0xbad014e4	-0.0015875367
240	0xba8293c8	-0.0009962255
241	0xbacfe671	-0.0015861524
242	0xbb17f776	-0.002318827
243	0x3bb3d7e8	0.0054883845
244	0x3c40d739	0.011770063
245	0x3ba974d5	0.005171398
246	0xbae1ecf7	-0.0017236759
247	0x3a8f5cb7	0.0010937665
248	0x3dfe7cb4	0.12426129
249	0x3abf95fa	0.001461684
250	0xbb80b5d8	-0.0039279275
251	0x3c77a7d1	0.015115694
252	0x3df69cb4	0.120416075
253	0xbdf2563c	-0.11832854
254	0x3e1a0a8c	0.15043086
255	0xbbf6c073	-0.007530266

lstm.bias_ih_l0 f4 [200]
0	0x3d2daaef	0.042399343
1	0x3dbfd19c	0.09366152
2	0xbd89ba3f	-0.06724977
3	0xbdd4f955	-0.10399119
4	0xbb4bbb77	-0.003108708
5	0x3dbd86e5	0.09254245
6	0x3d43ff6b	0.047851007
7	0x3d2399bd	0.039941538
8	0xbda16e20	-0.07882333
9	0x3dbf678f	0.09345924
10	0xbcdfe328	-0.027329996
11	0x3dbe3726	0.092878625
12	0xbd15745e	-0.03648793
13	0xbd85f1ce	-0.06540261
14	0xbe0d2881	-0.13784982
15	0xbd913ee9	-0.07092077
16	0x3d53174a	0.051535882
17	0x3dee9725	0.11649922
18	0x3bfd214c	0.0077249166
19	0xbda54684	-0.080700904
20	0x3e087fff	0.13330077
21	0xbc15a416	-0.009133359
22	0x3c7f5872	0.015585052
23	0x3d0fa49c	0.035069093
24	0xbd5a54de	-0.053303592
25	0x3d159dd8	0.036527485
26	0xbd77780f	-0.06041723
27	0xbd56faf8	-0.052485436
28	0x3d117087	0.035507705
29	0xbd4f6569	-0.05063382
30	0x3ce53531	0.027979465
31	0xbccd477c	-0.0250585
32	0xbdd0ec02	-0.10201265
33	0x3cca31b5	0.024681905
34	0xbd8e5376	-0.06949513
35	0x3dd6bd25	0.10485295
36	0x3d0b0d0d	0.033947993
37	0xbd988641	-0.07447482
38	0xbd33f23f	-0.043932196
39	0xbdab2a91	-0.08357728
40	0xbd6e1cfa	-0.058133103
41	0x3de3d19e	0.11123966
42	0x3e1513a0	0.14558268
43	0xbd9ee6f3	-0.07758894
44	0x3e3e3e17	0.18578373
45	0xbe03a1be	-0.12854668
46	0x3e1802df	0.14844845
47	0x3d733c1a	0.05938349
48	0xbd007163	-0.031358134
49	0xbcee0667	-0.029055787
50	0xbd71c620	-0.059026837
51	0xbd9325af	-0.07184922
52	0xbd44c28c	-0.048037097
53	0x3d5d6c34	0.05405827
54	0xbcfd5dd8	-0.030928537
55	0xbdefd1ef	-0.117099635
56	0x3d615ee4	0.055022135
57	0x3de4a806	0.111648604
58	0xbcada72a	-0.021197874
59	0x3e106756	0.1410192
60	0xbba8ee38	-0.005155351
61	0x3c68d9b1	0.014212058
62	0x3dc1ae54	0.094570786
63	0x3d25d596	0.040486895
64	0xbac0f8fd	-0.0014722642
65	0x3d59ed6e	0.053204946
66	0x3e163775	0.14669593
67	0xbd8a5981	-0.06755353
68	0x3e087c83	0.13328747
69	0xbe0e11a1	-0.13873912
70	0x3e090002	0.13378909
71	0xbd4a5684	-0.049398914
72	0x3df47467	0.119362645
73	0xbbe821c9	-0.0070841056
74	0x3d4a4fba	0.04939244
75	0x3de90209	0.11377341
76	0x3c2e99dd	0.010656801
77	0xbda24ca0	-0.07924771
78	0x3d2e8688	0.042608768
79	0xbd0d43a0	-0.03448832
80	0x3e1091cb	0.14118116
81	0x3cadc9ce	0.021214392
82	0x3dbb0cb9	0.09133286
83	0x3d1f37a1	0.03887141
84	0xbd9d7c07	-0.07689672
85	0x3d361e68	0.04446259
86	0xbd4d1c8f	-0.050076064
87	0xbd40c3ba	-0.04706166
88	0x3c2a3408	0.010388382
89	0x3bddc156	0.006767432
90	0xbcd1465d	-0.025546247
91	0xbd525c9b	-0.051357847
92	0x3deec7e1	0.116592176
93	0x3c1f582e	0.0097256135
94	0x3cecf897	0.02892713
95	0xbafbfa03	-0.001922429
96	0x3dc36885	0.0954142
97	0xbd3fdd56	-0.04684194
98	0xbd855b20	-0.06511521
99	0xbd54f508	-0.051991493
100	0xbd133595	-0.03593977
101	0x3dff21b7	0.124576025
102	0xbde1e538	-0.11030048
103	0xbd9c2fcf	-0.07626306
104	0xbda14da7	-0.07876139
105	0x3c9e4b92	0.019323144
106	0xbce8f1fc	-0.0284357
107	0x3da41b7c	0.08013055
108	0xbc7438a5	-0.014906083
109	0x3e1e93a7	0.15486012
110	0xbd66651e	-0.056248777
111	0xbd374d6c	-0.04475157
112	0x3c6eb0be	0.014568506
113	0xbc38004f	-0.011230542
114	0x3dab7ca3	0.08373382
115	0x3dd128fb	0.102128945
116	0xbda90152	-0.08252205
117	0x3d759bcc	0.059963033
118	0x3cec8a56	0.028874557
119	0x3c63efe2	0.013912173
120	0x3c27d4cb	0.010243605
121	0xbd8f88c6	-0.07008509
122	0x3dbd5eda	0.09246607
123	0x3e29ed7c	0.165945
124	0x3ddb4842	0.107071415
125	0x3c092fa8	0.008373179
126	0x3dce46da	0.100721076
127	0xbd176b83	-0.036967766
128	0x3c05a7b3	0.008157658
129	0xbd4e32a2	-0.050341256
130	0x3d7134da	0.058888294
131	0xbdc470a1	-0.09591795
132	0xbd827d78	-0.063715875
133	0xbbb2b2db	-0.00545345
134	0xbc022d7e	-0.0079454165
135	0x3d5d8660	0.054083228
136	0x3d60013c	0.054688677
137	0xbe134448	-0.14381516
138	0x3d1736fa	0.036917664
139	0x3db27516	0.087137386
140	0x3e078f29	0.13238205
141	0x3e15f161	0.1464286
142	0x3e042006	0.12902841
143	0xbc5b2fe9	-0.013378122
144	0x3d3f1c04	0.046657577
145	0x3d95a7cf	0.073073976
146	0xbd902084	-0.07037452
147	0xbe0666bb	-0.13125126
148	0x3d0dd30b	0.034625094
149	0xbd2371a6	-0.039903305
150	0xbde88e10	-0.11355221
151	0x3de1ac40	0.11019182
152	0xbda77d62	-0.08178212
153	0x3dbe7fd6	0.093017265
154	0x3d4df1d6	0.05027946
155	0xbd357c98	-0.044308275
156	0x3deb829a	0.1149952
157	0x3cecef73	0.028922772
158	0xbc0a48f9	-0.00844025
159	0x3c6889e7	0.014193035
160	0xbdcb987d	-0.09941194
161	0x3db9890b	0.09059342
162	0x3cd7e572	0.026354525
163	0x3c3928cb	0.01130123
164	0x3d0b2851	0.033973996
165	0xbd8b584c	-0.06803951
166	0x3d5efa91	0.054438177
167	0x3c4058b1	0.011739896
168	0x3c005287	0.007832176
169	0xbd8ce7cf	-0.068801515
170	0x3e0d3a8e	0.13791868
171	0xbd20e25f	-0.039278384
172	0x3ddc3c55	0.10753695
173	0x3d6f9d5d	0.058499683
174	0xbd981956	-0.074267074
175	0x3dd655b6	0.10465567
176	0xbc6d2ca8	-0.014475979
177	0xbd2c61f0	-0.042085588
178	0x3d5e5179	0.054276917
179	0x3e1b9523	0.1519361
180	0x3d06441d	0.0327798
181	0x3e279ed0	0.16369176
182	0x3ca637bc	0.020290248
183	0xbdcd6957	-0.100298576
184	0x3cd7d050	0.026344448
185	0xbd5e1b9a	-0.05422554
186	0xbddb696f	-0.10713469
187	0xbd3ae7d0	-0.04563123
188	0x3d949080	0.07254124
189	0xbd024c87	-0.031811263
190	0xbde260cc	-0.11053619
191	0xbd5dcc4a	-0.054149903
192	0x3da8395e	0.08214067
193	0x3dd7339d	0.10507891
194	0x3ccfd538	0.025370225
195	0x3d253914	0.040337637
196	0xbd3a6014	-0.045501783
197	0x3cbd918d	0.023140693
198	0x3e1e6ff3	0.15472393
199	0x3c7a396f	0.015272482

lstm.bias_hh_l0 f4 [200]
0	0xbd9c215c	-0.0762355
1	0xbdd47028	-0.103729546
2	0x3d3aefa6	0.045638703
3	0xbcdce7b2	-0.02696595
4	0x3d81b731	0.06333769
5	0xbdce9f67	-0.10088997
6	0xbd7ca2e8	-0.061678797
7	0x3c0db98f	0.008650198
8	0x3dd199d2	0.10234417
9	0x3c793fe0	0.015212983
10	0x3d492b1d	0.04911338
11	0x3dbaefd0	0.09127772
12	0x3e05d30c	0.13068789
13	0xbd1901d2	-0.03735525
14	0xbe2f9521	-0.17146732
15	0xbb8f0e9f	-0.0043657566
16	0x3deddbb9	0.116141744
17	0x3cc2a183	0.023758655
18	0x3cb25f3f	0.021773933
19	0xbe00904a	-0.12555042
20	0x3d69de9a	0.057097055
21	0x3b898543	0.0041967942
22	0xbd782a33	-0.06058712
23	0x3cd7db08	0.02634956
24	0x3da18022	0.078857675
25	0xbd3c136c	-0.04591696
26	0x3ddadd62	0.10686757
27	0xbda988a7	-0.082780175
28	0xbe1a18af	-0.15048479
29	0x3d6206e8	0.055182368
30	0x3da5e4b4	0.08100262
31	0xbc645eb2	-0.013938593
32	0x3d8ec846	0.06971793
33	0x3d221107	0.03956702
34	0x3d7221d7	0.059114303
35	0xbd4ec651	-0.050482098
36	0xbd08fc08	-0.03344348
37	0x3d3f397e	0.04668569
38	0xbe053e6a	-0.1301209
39	0x3d471c1f	0.048610803
40	0xbd5c77da	-0.053825237
41	0x3d840e71	0.06448067
42	0xbd92f6e4	-0.07175997
43	0xbcae65aa	-0.021288712
44	0xbd9cb482	-0.07651617
45	0xbd8d1ae6	-0.06889896
46	0x3ce39309	0.027780073
47	0xbc6139e4	-0.013746712
48	0xbda42c09	-0.080162115
49	0xbd9a450e	-0.075327024
50	0x3d7cbb9a	0.06170235
51	0x3d3d5af3	0.046229314
52	0x3dcc8b06	0.09987454
53	0xbc451b22	-0.012030395
54	0x3e1b4c50	0.1516583
55	0x3c95e960	0.018299758
56	0x3e0e2143	0.13879876
57	0xbe10fcb1	-0.14158894
58	0x3ba9221f	0.0051615383
59	0xbc98651a	-0.018602896
60	0xbd15e5af	-0.036595996
61	0xbe0f3be0	-0.13987684
62	0x3dc05356	0.09390895
63	0xbd9b432e	-0.07581173
64	0x3cca3ddd	0.024687702
65	0x3d2a6fd0	0.04161054
66	0xbdb48948	-0.08815247
67	0xbcb804eb	-0.022463283
68	0xbd5f73ab	-0.05455367
69	0xbd0d438d	-0.03448825
70	0x3e3757d5	0.17904599
71	0xbca2c94f	-0.019871382
72	0xbcb0f448	-0.021600857
73	0x3df48279	0.11938948
74	0x3e1e5f52	0.1546605
75	0x3cdb3e91	0.026763232
76	0x3e037514	0.1283763
77	0xbe115dd8	-0.14195955
78	0x3cbb3de2	0.022856656
79	0x3d212f9b	0.03935204
80	0xbdb99c36	-0.09062998
81	0x3da9bb73	0.08287706
82	0x3e2bcfb3	0.1677845
83	0x3c667460	0.014065832
84	0xbdb27ae9	-0.087148495
85	0xbdc830be	-0.09774922
86	0x3dd42bee	0.103599414
87	0xbd8e8acd	-0.06960068
88	0xbd488382	-0.04895354
89	0x3c789cad	0.015174073
90	0x3e18b8ce	0.14914247
91	0x3c9057d1	0.01762
92	0xbda27f0a	-0.07934387
93	0x3df0f1ed	0.11764894
94	0xbd8c26ed	-0.06843362
95	0x3d10367f	0.03520822
96	0x3dcd1e07	0.10015493
97	0x3d508054	0.050903633
98	0xbd64bf21	-0.055846337
99	0x3ba89dfa	0.0051457854
100	0x3db7041c	0.08936331
101	0x3d3cc4af	0.04608601
102	0x3d30f713	0.04320438
103	0xbcae97a5	-0.021312544
104	0x3d4d0678	0.050054997
105	0xbdbabf19	-0.0911848
106	0x3d829abe	0.06377171
107	0xbda7c1e4	-0.081912786
108	0x3d1d3943	0.038384687
109	0x3d53ba14	0.05169113
110	0xbd6895f7	-0.056783643
111	0x3ce13598	0.027491376
112	0x3dec51f8	0.11539072
113	0xbd87b195	-0.06625668
114	0x3d0fa986	0.03507378
115	0x3da5c283	0.08093741
116	0x3df024dc	0.1172578
117	0xbd34ee1c	-0.04417239
118	0x3e182d58	0.14861047
119	0x3de4b7fa	0.11167903
120	0x3e2fe7b6	0.17178234
121	0x3d48f61a	0.049062826
122	0xbe0c7dbb	-0.13719837
123	0xbd8b188a	-0.0679179
124	0xbcc0b53e	-0.023523923
125	0xbdf00db4	-0.11721364
126	0xbdbb90e4	-0.09158495
127	0x3dd65a07	0.1046639
128	0x3d53b45b	0.051685672
129	0x3e1f1ca3	0.15538268
130	0x3ce4b4aa	0.027918179
131	0x3d9ae1b1	0.075625785
132	0x3d21aa20	0.039468884
133	0xbcae6766	-0.021289539
134	0xbcd5adc1	-0.026083829
135	0x3e0e55d9	0.13899936
136	0x3d8e4e3d	0.069485165
137	0x3da7b1f8	0.08188242
138	0x3db13e6b	0.086544834
139	0xbd378e0f	-0.044813212
140	0x3dc0b82c	0.09410128
141	0xbd3b8b9a	-0.04578743
142	0xbe15f9cf	-0.14646076
143	0x3d8c4f09	0.06851012
144	0x3d3bd440	0.045856714
145	0x3ca5c141	0.020233752
146	0x3dde5f95	0.108580746
147	0xbc8c8c8f	-0.017156867
148	0x3db70341	0.089361675
149	0xbccfd13d	-0.025368327
150	0xbdbfa7d4	-0.093581825
151	0x3ddf54df	0.1090486
152	0x3e2954a8	0.165362
153	0xbb04ddaa	-0.0020273724
154	0x3e1ce956	0.15323386
155	0xbc5a372b	-0.013318817
156	0xbd0b60c0	-0.034027815
157	0x3daea827	0.08528166
158	0xbd900ca4	-0.07033661
159	0x3dff7554	0.124735504
160	0x3dc3d993	0.09562983
161	0xbe0350f7	-0.12823854
162	0x3dde7850	0.108627915
163	0x3e0e13fd	0.13874812
164	0xbe15c7c9	-0.14626993
165	0x3d7dc5c7	0.061956193
166	0x3d87483e	0.06605576
167	0x3ceb3170	0.028710097
168	0x3bae8737	0.0053261775
169	0x3d15deab	0.036589306
170	0x3d963639	0.07334561
171	0x3c94b1bd	0.018151158
172	0x3c5a9de0	0.013343304
173	0x3cdd1327	0.026986672
174	0x3d6820a7	0.056671765
175	0xbda72a1a	-0.08162327
176	0xbda7dd4b	-0.08196505
177	0x3cca78b2	0.024715755
178	0x3de71978	0.11284155
179	0xbd5f4afd	-0.054514874
180	0x3de66bf5	0.1125106
181	0xbd867276	-0.065648004
182	0xbd531f2b	-0.051543396
183	0xbcb8a458	-0.022539303
184	0x3cd9d598	0.026591107
185	0x3cb26132	0.021774862
186	0x3df6e2ca	0.12054975
187	0x3dc651e4	0.09683588
188	0xbda00d31	-0.07815016
189	0x3baa0bcb	0.005189394
190	0xbcd94230	-0.026520818
191	0x3c42a0d9	0.011879169
192	0x3d8911c4	0.06692842
193	0xb95dcd08	-0.00021152582
194	0x3d1e9356	0.03871473
195	0xbcba3814	-0.022731818
196	0x3e16f469	0.14741673
197	0xbcc206e9	-0.023684936
198	0x3db01543	0.08597805
199	0x3e008262	0.12549737

fc.weight f4 [2, 50]
0	0x3cc2069b	0.02368479
1	0xbd23ab6f	-0.039958414
2	0xbe291aac	-0.16514081
3	0xbde49261	-0.11160732
4	0xbdc5e972	-0.09663667
5	0xbc63821e	-0.013886003
6	0xbc8e8803	-0.01739884
7	0xbcb1ba58	-0.021695301
8	0xbdb18550	-0.086680055
9	0x3d84d390	0.06485665
10	0xbcedfa0c	-0.029049896
11	0xbdbc3db2	-0.09191455
12	0xbd0d61c3	-0.03451706
13	0x3d6ae377	0.057345834
14	0xbd5eaa56	-0.054361664
15	0x3d2e8453	0.042606663
16	0xbdeb0010	-0.11474621
17	0x3d0a3049	0.033737455
18	0x3e20087a	0.15628234
19	0x3d1ba24a	0.037996568
20	0x3cfe4f1e	0.031043585
21	0x3d46e581	0.048558716
22	0x3d38267c	0.044958577
23	0x3da5c18a	0.08093555
24	0x3e22e06f	0.15905927
25	0xbe0780db	-0.13232748
26	0xbb3c03e7	-0.002868885
27	0x3d58d555	0.052937824
28	0x3d7dbbba	0.061946608
29	0x3dd60ec4	0.10452035
30	0x3cbf4102	0.023346428
31	0xbd80e612	-0.062938824
32	0xbd8644ed	-0.06556115
33	0xbd550102	-0.052002914
34	0xbdf923d4	-0.12165037
35	0x3dc60d3b	0.09670492
36	0xbd12f305	-0.035876293
37	0xbdf63948	-0.12022644
38	0xbc9e09b1	-0.01929173
39	0x3ddc1fda	0.10748263
40	0x3e0ec7c7	0.13943397
41	0x3d80158e	0.06254111
42	0xbd3181d9	-0.043336723
43	0xbd7d943d	-0.06190895
44	0xbce8c705	-0.028415212
45	0xbc60d4fc	-0.013722654
46	0xbc3256ce	-0.010884954
47	0xbd89e649	-0.067333765
48	0x3e2d3090	0.16913056
49	0xbdd58c7d	-0.10427187
50	0x3dddafd6	0.10824554
51	0xbe03c94d	-0.12869759
52	0xbdc2d892	-0.09513964
53	0xbdd39739	-0.10331578
54	0x3d032bae	0.032024078
55	0x3d56f0f3	0.05247588
56	0xbd328459	-0.043583248
57	0x3cce8ec1	0.025214555
58	0xbdf452dd	-0.119298674
59	0xbd905804	-0.07048038
60	0xbdcb6048	-0.099304736
61	0xbcd8a184	-0.026444204
62	0xbd86c407	-0.06580358
63	0x3e224095	0.15844949
64	0x3d8ab30d	0.067724325
65	0x3be1775a	0.006880683
66	0xbd6852c0	-0.05671954
67	0xbd9f6b42	-0.0778413
68	0x3d9fa245	0.07794622
69	0xbe09a8a9	-0.13443245
70	0xbd74647a	-0.059666134
71	0xbc15a53f	-0.009133636
72	0xbde4232c	-0.11139521
73	0xbd3e28e5	-0.04642572
74	0x3ce14213	0.027497327
75	0xba64875d	-0.00087176805
76	0x3e0c2236	0.13684925
77	0xbddb5022	-0.107086435
78	0xbd60a85e	-0.054848067
79	0x3e1a43b6	0.15064892
80	0x3c9c5939	0.019085513
81	0xbd0da41a	-0.034580328
82	0xbd80b215	-0.062839665
83	0xbb8565fa	-0.0040709944
84	0xbd681d26	-0.056668423
85	0xba83571a	-0.0010020465
86	0xbdc3829d	-0.09546397
87	0x3d91f0c2	0.07125999
88	0xbdf0c2cc	-0.117559046
89	0x3db96342	0.09052135
90	0x3e201643	0.15633492
91	0x3e0bc6fb	0.13650124
92	0x3e1cecb8	0.15324676
93	0xbe36bf0e	-0.17846319
94	0x3a87f44a	0.0010372486
95	0x3b72635f	0.00369855
96	0x3d9189c6	0.07106356
97	0xbdfbb786	-0.12290864
98	0x3e075a73	0.13218097
99	0xbd308cdb	-0.04310308

fc.bias f4 [2]
0	0xbddd8694	-0.10816684
1	0x3d601275	0.054705102
