scripts/Ray/stock_price_model_ray.pth (torch, 47892 bytes, 6 tensors)

lstm.weight_ih_l0 f4 [200, 4]
-0.044577997 0.01194115 0.14817032 0.02313778 0.08205938 0.16368327 -0.07478194 0.039510794
-0.10119784 -0.049743764 -0.021184722 0.05715027 -0.017938249 0.019510947 0.112595886 -0.07010389
-0.06489799 0.064144105 0.097566746 -0.04931127 -0.045963056 0.15983683 0.0627471 0.13817728
-0.052151732 0.071493804 0.08321242 -0.10827364 0.16819203 -0.08606169 0.1527062 0.10552354
-0.0959115 -0.018337678 0.06110286 0.0049997605 0.070202425 -0.036620915 0.114088826 -0.09332248
0.14515667 -0.05877091 0.17205656 -0.051551703 -0.015489863 0.03037616 -0.108389795 0.09176109
0.07017544 0.11058723 -0.033436574 -0.07047879 0.02218284 0.12221948 0.12018581 -0.04662482
0.09922813 -0.030830927 -0.15327725 0.034631938 0.10774847 -0.075479865 -0.08792164 0.048915174
-0.04303986 0.1570429 0.09317816 0.017286045 -0.025216829 -0.11888175 0.009231542 -0.029332327
-0.0151973935 0.009784331 0.094931595 0.030102177 0.17730856 0.021082839 -0.022571972 -0.10123464
0.05050419 0.007440493 -0.13390358 0.1045683 -0.032714237 -0.0015022352 -0.08167401 0.07237505
0.13165215 -0.06707854 0.02773655 0.16919681 0.04694312 -0.007871962 0.0070850244 0.1435287
0.15834431 0.075382255 0.034475703 0.15146422 0.11065874 0.042418648 0.010414765 0.13992442
0.009066367 0.1436194 0.068587795 0.11323689 0.097321376 0.0512169 0.062125925 0.0863141
-0.06604923 0.024570433 0.1619293 0.04463397 -0.0400528 0.11910058 -0.09503638 0.014575677
0.0633012 0.12389855 0.088790275 -0.07119226 0.12129321 0.1136919 -0.10724258 0.08389261
-0.15947652 0.024014352 -0.03364187 -0.0106448075 0.12069338 0.1221053 -0.102834925 0.008434208
-0.05071631 0.004211914 0.14351894 0.096522994 0.084127374 0.09058199 -0.11558338 -0.048502274
0.11115781 -0.045763504 -0.038520176 0.020299485 0.027218932 0.07268043 0.11030501 0.0027395494
-0.06769926 0.16233556 0.17428602 0.107340276 -0.06796744 0.04530386 0.12967898 -0.074361704
-0.09586812 -0.03166565 -0.025303174 0.11956835 -0.038242504 -0.079792485 0.09795795 -0.007707063
-0.15575358 -0.018435113 -0.117349125 -0.007897168 0.015577439 -0.018499127 0.118314765 -0.011920293
-0.039680023 0.15174413 0.015224095 0.14439367 -0.06813434 0.15829253 -0.10939862 -0.032795724
0.07642452 -0.06450829 -0.17129007 -0.14515826 0.12418417 -0.052887008 -0.06323497 -0.06341021
0.024142114 0.009868967 -0.03198219 -0.13941358 -0.0018032755 -0.053440753 -0.09301394 -0.13113248
0.15782511 0.15477571 0.132141 0.065678485 0.07842215 0.020312155 0.17070752 0.035910014
-0.04221774 0.05498541 0.053109933 -0.006801559 0.09486897 -0.09364986 0.026285293 0.05891253
-0.15450181 0.014566895 0.11835936 0.050462674 -0.084199995 -0.10885354 0.008947139 -0.110124715
0.14436378 0.036499813 0.15780151 -0.046003096 -0.0068296306 0.022688316 -0.024731439 0.068388276
0.09102704 0.16864465 0.051839452 -0.081369616 0.07116926 0.14185287 0.15835147 -0.10417084
0.03344106 0.017461648 -0.09074565 0.14712888 0.04897959 -0.07229465 0.053526994 0.09890623
0.05225654 -0.037387922 0.03216628 -0.1066723 0.16775031 0.12283259 -0.07596437 0.09678915
00000000: 6b97 36bd d0a4 433c f6b9 173e 718b bd3c
00000010: c00e a83d 969c 273e 4627 99bd 12d6 213d
00000020: d040 cfbd 1ec0 4bbd 958b adbc 6716 6a3d
00000030: 3cf3 92bc 6cd5 9f3c ac98 e63d a192 8fbd
00000040: 3de9 84bd fc5d 833d 13d1 c73d 9dfa 49bd
00000050: c243 3cbd 44ac 233e 8d81 803d 587e 0d3e
00000060: 0e9d 55bd 586b 923d 466b aa3d 92be ddbd
00000070: 883a 2c3e 1c41 b0bd 045f 1c3e ba1c d83d
00000080: 406d c4bd e638 96bc fe46 7a3d 08d5 a33b
00000090: 4ac6 8f3d d0ff 15bd 67a7 e93d db1f bfbd
000000a0: f3a3 143e c4b9 70bd 982f 303e e127 53bd
000000b0: 32c9 7dbc 6dd7 f83c 78fb ddbd 3ded bb3d
000000c0: 24b8 8f3d 8f7b e23d caf4 08bd 2f57 90bd
000000d0: cab8 b53c 354e fa3d fa23 f63d abf9 3ebd
000000e0: 1e38 cb3d 2491 fcbc b6f4 1cbe 38da 0d3d
000000f0: 3bab dc3d 3095 9abd 4310 b4bd 475b 483d
00000100: 904a 30bd dbcf 203e 31d4 be3d 779b 8d3c
00000110: 8693 cebc 4678 f3bd e53f 173c 594a f0bc
00000120: 7dfe 78bc 754e 203c 7f6b c23d d798 f63c
00000130: 6090 353e ebb5 ac3c dbe8 b8bc 1b54 cfbd
00000140: 7bdd 4e3d 61cf f33b 051e 09be e827 d63d
00000150: 5dff 05bd a6e6 c4ba b444 a7bd 5f39 943d
00000160: d2cf 063e 7960 89bd c337 e33c ee41 2d3e
00000170: 6e47 403d 67f9 00bc 7e29 e83b 30f9 123e
00000180: 0325 223e 0362 9a3d 6536 0d3d 7019 1b3e
00000190: 0da1 e23d 2dbf 2d3d b1a2 2a3c 5948 0f3e
000001a0: 198b 143c f710 133e c277 8c3d bee8 e73d
000001b0: 6e50 c73d d0c8 513d c177 7e3d 72c5 b03d
000001c0: d244 87bd ef47 c93c cbd0 253e 1cd2 363d
000001d0: 680e 24bd 01eb f33d 6fa2 c2bd d2ce 6e3c
000001e0: 0fa4 813d 86be fd3d add7 b53d 3fcd 91bd
000001f0: 9368 f83d 4dd7 e83d ffa1 dbbd e4cf ab3d
00000200: d04d 23be bfb9 c43c 0fcc 09bd 8f67 2ebc
00000210: 172e f73d 5812 fa3d 1e9b d2bd a22f 0a3c
00000220: e8bb 4fbd 1804 8a3b a1f6 123e d9ad c53d
00000230: f94a ac3d 0d83 b93d fbb6 ecbd 52aa 46bd
00000240: b5a6 e33d 8372 3bbd 55c7 1dbd 1b4b a63c
00000250: 3dfa de3c 7ad9 943d 98e7 e13d 038a 333b
00000260: e9a5 8abd 4b3b 263e 0978 323e 38d5 db3d
00000270: 8332 8bbd 8a90 393d 91ca 043e f34a 98bd
00000280: 8156 c4bd d7b3 01bd 9a48 cfbc 40e0 f43d
00000290: 2ca4 1cbd 3e6a a3bd 2d9e c83d 888b fcbb
000002a0: de7d 1fbe 3c05 97bc bd54 f0bd 2063 01bc
000002b0: 8438 7f3c 7b8b 97bc 034f f23d 554d 43bc
000002c0: 8587 22bd d062 1b3e 7c6e 793c efdb 133e
000002d0: 048a 8bbd 7017 223e 620c e0bd cf54 06bd
000002e0: 7584 9c3d ec1c 84bd aa66 2fbe 5ea4 14be
000002f0: 4554 fe3d 0ca0 58bd 5681 81bd 36dd 81bd
00000300: afc5 c53c 73b1 213c c2ff 02bd 6fc2 0ebe
00000310: e35b ecba b1e4 5abd 187e bebd 9847 06be
00000320: e89c 213e 867d 1e3e f84f 073e 7182 863d
00000330: cb9b a03d ad65 a63c f4cd 2e3e 6116 133d
00000340: 82ec 2cbd 6238 613d cd89 593d 9ddf debb
00000350: aa4a c23d 7fcb bfbd 4154 d73c 444e 713d
00000360: b935 1ebe fca9 6e3c 6466 f23d f3b1 4e3d
00000370: 0c71 acbd 9bee debd 0597 123c 1189 e1bd
00000380: 19d4 133e d480 153d b896 213e be6d 3cbd
00000390: 18cb dfbb d9dc b93c 9699 cabc 270f 8c3d
000003a0: 626c ba3d 2fb1 2c3e 9b55 543d 1da5 a6bd
000003b0: 30c1 913d e141 113e e326 223e 8557 d5bd
000003c0: 7ef9 083d bb0b 8f3c dbd8 b9bd f4a8 163e
000003d0: d39e 483d 380f 94bd 1f3f 5b3d 598f ca3d
000003e0: f40a 563d 1424 19bd cac0 033d 0277 dabd
000003f0: bdc6 2b3e a78f fb3d 3593 9bbd 6439 c63d

lstm.weight_hh_l0 f4 [200, 50]
0.091957964 -0.083850875 0.043997727 -0.01157034 0.11897853 0.012287412 0.028087111 0.031725343
0.09155805 -0.06984202 0.14533736 -0.10666002 0.05501041 -0.14358197 0.08230755 0.0329789
-0.025244907 0.06677808 0.099090494 0.12733941 -0.08031119 0.030929115 0.098735616 -0.00045808603
-0.032784484 -0.104884885 -0.012353669 0.0071859923 0.02453297 -0.047158904 0.09718187 0.01629319
0.06569403 0.061077308 -0.003560233 -0.07449027 0.04822318 -0.048803817 -0.11241294 0.051502462
-0.039821118 0.08695232 0.15562478 0.10988844 0.012490703 -0.010469925 -0.07412509 -0.064670235
0.017631035 0.11310205 -0.1596016 -0.08695476 0.05868057 0.15887567 0.06894589 0.10918613
-0.11018756 0.034301803 0.11415425 -0.022798913 0.018975114 0.14219797 0.046141997 0.09884655
0.016716866 0.04620612 0.09549833 0.053695455 -0.0075589023 -0.033062562 -0.012441045 0.09791371
-0.06444039 0.1113777 0.118001126 -0.08809803 0.06667491 0.066276826 -0.022471054 0.07425926
-0.06488343 0.047573823 0.02426435 0.049984254 0.11850067 0.0386713 0.011504846 -0.03605892
0.12403724 -0.088520415 -0.044037983 -0.02485826 0.0230211 -0.03793511 -0.005119001 -0.018272297
-0.07422394 0.08019715 0.07265656 -0.052360754 -0.06777124 0.011714426 0.1100022 0.07617647
-0.12460881 -0.07814752 0.0810603 -0.03921562 -0.10019459 -0.11765113 -0.026777871 -0.029919343
0.010110626 -0.11824051 -0.017081568 0.0005507865 0.13725233 -0.10404069 -0.04186595 0.021036724
-0.113100246 0.11095574 -0.096938245 -0.080520004 0.12707125 0.046096426 -0.10719607 0.04269965
0.06678077 0.13934799 -0.097113974 -0.0864733 -0.054001708 -0.09584583 0.1155982 0.025539832
0.074178666 -0.0062434343 0.10367486 -0.08892046 -0.13894156 -0.057658542 -0.104034 -0.010481747
0.075161666 -0.07736966 -0.051151652 0.093407504 0.049399953 0.065955654 -0.15855439 -0.02886126
-0.11538891 -0.0834655 -0.054899078 -0.11045728 0.17436227 -0.07042251 0.024995377 0.07411631
0.12247813 -0.02461624 0.076456666 0.012919136 0.018496085 0.069895506 -0.061538164 -0.060701344
-0.010388787 0.16489589 0.027142528 -0.008862136 0.06959586 -0.13284585 0.16506335 -0.031212918
-0.17165223 -0.17387138 -0.07308125 0.014435151 0.057796583 -0.022590496 0.05898735 0.03632541
-0.08568663 -0.121686995 -0.09191829 -0.0044515063 0.112026155 0.0030356469 0.0860044 0.021488994
0.018490689 0.029983781 -0.033601973 0.15896605 -0.10991654 0.0050093485 -0.167373 -0.12526245
-0.09169027 0.106382206 0.05465182 0.036420494 -0.097891405 0.08967282 -0.13942201 0.021721153
-0.10448437 0.022870727 -0.02436228 0.07189031 0.11206567 0.07273391 0.0054120272 0.11886359
-0.10831606 0.0719193 0.01234054 -0.099135004 -0.04640098 0.087524906 0.07923512 0.14376198
-0.0429713 0.10235795 0.11778192 0.11931529 0.11223797 0.010253519 -0.041332725 0.14485858
-0.00069375435 -0.049970515 -0.10221752 0.01917281 0.097925276 0.15513524 0.11072283 0.11784191
0.12537077 0.017552689 -0.036078174 0.06778046 -0.06702269 -0.11346581 -0.046451833 -0.06037418
-0.06973648 0.06333189 -0.0759523 -0.006802152 0.09495977 0.04765132 -0.019533185 -0.1279065
00000000: 7554 bc3d 02ba abbd f636 343d 8691 3dbc
00000010: 04ab f33d 2451 493c f116 e63c 6ff2 013d
00000020: c982 bb3d 5509 8fbd 51d3 143e 9270 dabd
00000030: 9852 613d 2707 13be dc90 a83d e214 073d
00000040: 68ce cebc f2c2 883d f5ef ca3d 4365 023e
00000050: 317a a4bd 0e5f fd3c e635 ca3d 442b f0b9
00000060: 0649 06bd e3cd d6bd 0b67 4abc 7978 eb3b
00000070: 5ef9 c83c b229 41bd 4a07 c73d 4c79 853c
00000080: 978a 863d 332c 7a3d cc52 69bb 5b8e 98bd
00000090: ab85 453d 83e6 47bd c138 e6bd 3ff4 523d
000000a0: 781b 23bd 0f14 b23d 1a5c 1f3e 310d e13d
000000b0: cea5 4c3c 0c8a 2bbc e5ce 97bd d471 84bd
000000c0: f66e 903c 0ca2 e73d 9a6e 23be 5615 b2bd
000000d0: 0a5b 703d 4eb0 223e 8133 8d3d fa9c df3d
000000e0: 04aa e1bd 0c80 0c3d b4c9 e93d c9c4 babc
000000f0: b371 9b3c 589c 113e 64ff 3c3d 0f70 ca3d
00000100: cff1 883c a142 3d3d a194 c33d c4ef 5b3d
00000110: abb0 f7bb 9c6c 07bd 86d5 4bbc fc86 c83d
00000120: 53f9 83bd fe19 e43d 93aa f13d bd6c b4bd
00000130: db8c 883d 25bc 873d 3715 b8bc 3d15 983d
00000140: 9be1 84bd c5dc 423d 08c6 c63c 4abc 4c3d
00000150: 7bb0 f23d cc65 1e3d d27e 3c3c 85b2 13bd
00000160: 3d07 fe3d 314a b5bd 2c61 34bd 8da3 cbbc
00000170: bf96 bc3c d961 1bbd 4bbd a7bb c9af 95bc
00000180: b902 98bd 673e a43d f6cc 943d 3b78 56bd
00000190: a6cb 8abd dded 3f3c d548 e13d 6902 9c3d
000001a0: e732 ffbd cf0b a0bd f102 a63d 8fa0 20bd
000001b0: d232 cdbd 13f3 f0bd 445d dbbc 6919 f5bc
000001c0: 0aa7 253c 1528 f2bd a5ee 8bbc a862 103a
000001d0: e08b 0c3e 4913 d5bd a17b 2bbd 3555 ac3c
000001e0: 1aa1 e7bd c33c e33d 8f87 c6bd ace7 a4bd
000001f0: f71e 023e 9bcf 3c3d 9d89 dbbd d4e5 2e3d
00000200: 5bc4 883d 3db1 0e3e b1e3 c6bd ea18 b1bd
00000210: e530 5dbd d24a c4bd c0be ec3d e938 d13c
00000220: fcea 973d b995 ccbb 7c53 d43d ee1b b6bd
00000230: b246 0ebe 5d2b 6cbd c70f d5bd a2bb 2bbc
00000240: 5cee 993d fc73 9ebd 6584 51bd 6f4c bf3d
00000250: 9b57 4a3d c213 873d 155c 22be 736e ecbc
00000260: 0551 ecbd f6ef aabd dbdd 60bd 6d37 e2bd
00000270: 068c 323e ad39 90bd 1bc3 cc3c 4bca 973d
00000280: d0d5 fa3d ffa7 c9bc 5095 9c3d c9aa 533c
00000290: 1a85 973c 6025 8f3d 710f 7cbd f9a1 78bd
000002a0: bb35 2abc 78da 283e 025a de3c 7e32 11bc
000002b0: 4688 8e3d be08 08be 5e06 293e 3cb2 ffbc
000002c0: 9ac5 2fbe 570b 32be 9fab 95bd 6981 6c3c
000002d0: 1cbc 6c3d b40f b9bc b89c 713d f4c9 143d
000002e0: 797c afbd 0837 f9bd a83f bcbd f1dd 91bb
000002f0: f86d e53d b4f1 463b 1323 b03d b009 b03c
00000300: c979 973c 8ca0 f53c 39a2 09bd ffc7 223e
00000310: ec1b e1bd 7625 a43b d463 2bbe cd44 00be
00000320: 1cc8 bbbd eade d93d 96da 5f3d a82d 153d
00000330: 4a7b c8bd 62a6 b73d a5c4 0ebe 8ff0 b13c
00000340: e7fb d5bd 645b bb3c 6793 c7bc 3a3b 933d
00000350: b082 e53d 84f5 943d 6057 b13b c16e f33d
00000360: cfd4 ddbd 6d4a 933d fa2f 4a3c 4b07 cbbd
00000370: f40e 3ebd 4240 b33d 0646 a23d 5736 133e
00000380: ad02 30bd 0ba1 d13d a637 f13d 935b f43d
00000390: 05dd e53d 60fe 273c 814c 29bd cf55 143e
000003a0: 11dd 35ba e2ad 4cbd 6b57 d1bd 4c10 9d3c
000003b0: 0c8d c83d c6db 1e3e a7c2 e23d 1957 f13d
000003c0: 3261 003e a8ca 8f3c b5c6 13bd 7bd0 8a3d
000003d0: 3143 89bd c360 e8bd 4744 3ebd eb4a 77bd
000003e0: 00d2 8ebd 26b4 813d e18c 9bbd 96e4 debb
000003f0: 457a c23d 082e 433d 0f04 a0bc ecf9 02be

lstm.bias_ih_l0 f4 [200]
-0.035893172 -0.06323948 0.015850203 -0.014828305 -0.13270046 -0.11629458 0.09024356 0.029128902
0.11741108 0.15761207 -0.08782443 0.069574974 -0.0032790005 0.13477871 -0.07713241 -0.13435182
-0.03591878 -0.107079424 -0.031237822 0.022103403 -0.14221162 -0.0051784283 0.056775544 -0.031672407
-0.07151811 0.011796602 -0.05977543 0.13476938 0.035490587 0.046351396 0.1562914 -0.1344954
-0.011895062 -0.07349236 0.075193666 0.08638158 -0.122803226 0.11572727 0.022498364 0.05782288
0.012860245 0.08682228 -0.044083223 0.13202217 0.08675285 -0.044392575 0.06839451 0.06117225
-0.12786075 0.12607163 0.128141 -0.029197322 -0.0072500287 -0.038046297 0.108499505 -0.053426
0.1021909 0.0015805672 -0.08376757 0.1236172 -0.09737813 -0.04109412 -0.066325456 0.10440932
0.07380991 0.13132118 0.060771067 -0.011389224 -0.08468162 0.059029497 0.095437035 0.003989787
-0.112660564 0.014150668 0.14636387 0.055863623 -0.022530727 0.002971933 -0.0031376672 -0.0027745648
0.018431082 0.01949231 0.051290106 0.14173259 0.09220626 -0.05714052 0.05073344 -0.09381057
-0.059334815 0.047801822 -0.115036905 0.015906388 0.010003939 -0.07293316 0.018135188 0.09188264
0.01844972 0.09044254 0.06296017 -0.03813397 -0.111135565 -0.048547734 -0.005665492 -0.028934322
0.032383993 -0.059468657 -0.030415634 -0.09903395 -0.08784716 0.011222318 -0.05914486 -0.06489771
-0.04430284 -0.11279967 0.007346585 0.045587137 -0.115335084 -0.08425235 0.13058601 -0.027024979
0.060874406 0.1060736 0.084587924 0.10679107 0.046757475 0.017858755 -0.11640088 -0.08836496
-0.1182791 0.08312136 -0.07612284 -0.11543232 0.089290515 -0.049023867 -0.015758567 0.0614828
-0.061595924 -0.08843257 -0.11201026 -0.06291855 -0.117001906 -0.01307373 -0.07571572 -0.07381375
-0.06260119 0.14277542 -0.051432375 0.01178831 -0.107995965 -0.16306284 0.13729605 0.029709121
-0.07637881 0.10261088 0.070533484 0.032087773 0.050868694 -0.004766462 0.091045745 0.14484449
0.013692143 -0.122560844 -0.009942315 0.03673644 -0.07636526 -0.0916976 0.08958665 -0.07667471
-0.07638121 0.06758532 -0.075066045 -0.07567172 0.099050365 0.060556285 -0.06983371 0.13902274
0.030289367 0.09603972 -0.115189716 0.03901927 0.1707495 0.038559135 -0.09512912 0.08775032
-0.053417407 -0.07840228 0.15277307 0.07198102 0.026715081 0.13546221 0.056999788 -0.006127138
0.07426678 -0.085827604 0.04869816 -0.041887067 0.05163142 0.11483815 -0.08648091 -0.007353804
00000000: b804 13bd b383 81bd 49d8 813c 6bf2 72bc
00000010: a1e2 07be da2b eebd 9ed1 b83d bc9f ee3c
00000020: 3875 f03d 0f65 213e 4bdd b3bd 537d 8e3d
00000030: 80e4 56bb 6e03 0a3e 99f7 9dbd 8693 09be
00000040: 921f 13bd 754c dbbd 76e6 ffbc 3212 b53c
00000050: ec9f 11be ceaf a9bb 798d 683d edba 01bd
00000060: 1678 92bd 8946 413c 15d7 74bd fc00 0a3e
00000070: 945e 113d f6da 3d3d da0a 203e 2ab9 09be
00000080: 82e3 42bc 2a83 96bd 23ff 993d d3e8 b03d
00000090: 4280 fbbd 6b02 ed3d 7d4e b83c afd7 6c3d
000000a0: c7b3 523c e1cf b13d 9c90 34bd d230 073e
000000b0: 7aab b13d fdd4 35bd 6c12 8c3d c18f 7a3d
000000c0: eeed 02be ec18 013e 6537 033e 392f efbc
000000d0: a691 edbb 6fd6 1bbd fd34 de3d 39d5 5abd
000000e0: 7649 d13d 092b cf3a 558e abbd 042b fd3d
000000f0: 2f6e c7bd 4f52 28bd a4d5 87bd 8ed4 d53d
00000100: a629 973d 0f79 063e 15eb 783d de99 3abc
00000110: 8f6d adbd eac8 713d 7e74 c33d c2bc 823b
00000120: 95ba e6bd 34d8 673c 69e0 153e 41d1 643d
00000130: 5c92 b8bc c3c4 423b 52a1 4dbb 79d5 35bb
00000140: c8fc 963c 56ae 9f3c 9315 523d 5922 113e
00000150: a3d6 bc3d 2e0c 6abd decd 4f3d c21f c0bd
00000160: 1009 73bd d8cb 433d 7898 ebbd 1d4e 823c
00000170: 90e7 233c fb5d 95bd 3f90 943c f72c bc3d
00000180: de23 973c f039 b93d 43f1 803d 5e32 1cbd
00000190: 0b9b e3bd fdd9 46bd 97a5 b9bb ac07 edbc
000001a0: 14a5 043d 6895 73bd 352a f9bc 50d2 cabd
000001b0: 36e9 b3bd d0dd 373c e141 72bd 17e9 84bd
000001c0: e576 35bd 8303 e7bd 9fbb f03b 94b9 3a3d
000001d0: cd34 ecbd 7f8c acbd 57b8 053e 7d63 ddbc
000001e0: 7157 793d 1e3d d93d 6f3c ad3d 47b5 da3d
000001f0: c484 3f3d 864c 923c 9663 eebd b0f8 b4bd
00000200: 503c f2bd 883b aa3d 4be6 9bbd c867 ecbd
00000210: f2dd b63d 40cd 48bd 1c18 81bc 63d5 7b3d
00000220: 024c 7cbd 231c b5bd a365 e5bd 71db 80bd
00000230: b29e efbd 3333 56bc d810 9bbd aa2b 97bd
00000240: 0d35 80bd b833 123e c1aa 52bd c123 413c
00000250: fd2c ddbd f2f9 26be 5697 0c3e 8b60 f33c
00000260: 7e6c 9cbd a725 d23d dc73 903d 786e 033d
00000270: b15b 503d fb2f 9cbb 3176 ba3d 1d52 143e
00000280: 0355 603c 2e01 fbbd 17e5 22bc f378 163d
00000290: 6465 9cbd f4cb bbbd 3579 b73d a107 9dbd
000002a0: c06d 9cbd 2c6a 8a3d 3abc 99bd c6f9 9abd
000002b0: ebda ca3d de09 783d fa04 8fbd fa5b 0e3e
000002c0: 6821 f83c 79b0 c43d 96e8 ebbd acd2 1f3d
000002d0: f5d8 2e3e 2ff0 1d3d 0ed3 c2bd 71b6 b33d
000002e0: 36cc 5abd 6091 a0bd 8b70 1c3e c96a 933d
000002f0: 96d9 da3c 9bb6 0a3e 9c78 693d 29c6 c8bb
00000300: 2e19 983d 62c6 afbd b977 473d c691 2bbd
00000310: 787b 533d 4430 eb3d e71c b1bd 2ef8 f0bb

lstm.bias_hh_l0 f4 [200]
-0.036885817 -0.03948599 -0.023427872 0.1286745 0.08988297 0.07295275 -0.06923191 0.13590622
-0.019639358 -0.0763429 0.034756605 -0.098664574 -0.07906064 0.09360317 -0.14561242 0.06497508
0.16281277 -0.05423935 -0.061054368 -0.1115998 -0.10094833 0.046814036 0.02342189 0.08282009
0.055966523 0.050568614 0.019137278 -0.018220428 0.072889894 0.037179314 -0.055219855 -0.008601476
0.010777649 0.020936482 0.07352459 0.07996126 -0.094249055 0.04231024 0.12807733 0.040663
0.103942245 -0.0942865 -0.00679013 0.08437137 0.060154796 -0.13466683 0.005248367 -0.0045090453
-0.06209399 0.0695248 0.15825006 -0.11586649 -0.01469254 0.16898528 0.008602028 0.0944859
0.06826599 0.118202135 -0.12658174 -0.07510456 0.004447283 0.11276079 -0.049874295 -0.05442505
-0.06150664 0.09014348 -0.0018079212 0.05162327 0.0968852 0.073081814 0.06602261 -0.023851547
-0.03215188 0.10452295 0.046962287 -0.05584162 0.03208638 -0.07274165 -0.052477542 0.14355664
-0.03835472 -0.03057714 0.10909644 -0.013096557 -0.10591553 0.136827 -0.056431882 0.08457467
0.04453081 0.1423271 -0.019184154 0.08367809 0.061981488 0.043793324 -0.044549156 0.02409432
-0.001822376 -0.0033866684 -0.14055699 0.025689198 0.075146556 0.07067454 -0.04543924 -0.03194608
-0.07473009 -0.060947772 0.11575883 0.042231575 0.12766014 -0.017721336 0.06753168 -0.099600084
0.00060255744 -0.08242092 0.12222119 0.08398267 0.014251957 -0.02492162 -0.08081399 0.029162822
0.102571994 0.045948006 0.13442382 -0.11662719 -0.0434982 -0.045612723 -0.034531347 -0.007371147
-0.020049326 0.090583794 0.010011961 0.11872261 0.06550392 -0.117034584 0.09858286 -0.06262262
-0.015562236 0.0035909875 0.097171955 -0.13328551 0.08165606 0.10254328 0.055691157 -0.09359863
-0.069150545 0.11228093 -0.08917473 0.07685936 0.024188435 0.084092304 0.118447684 0.1385591
-0.04929103 -0.009679949 -0.027981669 0.13154219 -0.11126256 0.00027374947 0.08847102 0.16850609
0.05475836 0.068531625 0.13990076 -0.09112921 0.0096355695 0.0007859621 -0.066424586 -0.029522901
-0.08144786 0.08056972 0.080961294 -0.06725863 -0.11391044 0.100085415 -0.076204985 0.03996125
-0.104563795 -0.021995826 0.116864406 -0.10980254 0.16092345 -0.049873065 0.020933416 -0.0816947
0.095560364 0.0108281765 -0.010226451 -0.09279717 -0.018471716 -0.075256534 0.112895496 0.0691396
0.11482626 -0.09671119 0.12349022 0.11070843 -0.104596764 0.023975864 -0.062475678 0.13946442
00000000: 9515 17bd 10bc 21bd cfeb bfbc 40c3 033e
00000010: 9014 b83d 4068 953d 76c9 8dbd 002b 0b3e
00000020: b8e2 a0bc ab59 9cbd f15c 0e3d a710 cabd
00000030: 8bea a1bd 05b3 bf3d 6c1b 15be a811 853d
00000040: 64b8 263e 152a 5ebd 2514 7abd 708e e4bd
00000050: ffbd cebd 13c0 3f3d 43df bf3c 949d a93d
00000060: 273d 653d 0921 4f3d c8c5 9c3c 0243 95bc
00000070: 4c47 953d 5649 183d 372e 62bd 35ed 0cbc
00000080: bc94 303c fc82 ab3c 0f94 963d bbc2 a33d
00000090: a605 c1bd 814d 2d3d b426 033e 3f8e 263d
000000a0: acdf d43d 4819 c1bd bd7f debb e6ca ac3d
000000b0: e064 763d 1ae6 09be 7efa ab3b 9dc0 93bb
000000c0: 4556 7ebd 0563 8e3d 4e0c 223e 694b edbd
000000d0: fbb8 70bc 7a0a 2d3e 85ef 0c3c d381 c13d
000000e0: 0acf 8b3d f613 f23d a59e 01be 6bd0 99bd
000000f0: 84ba 913b 21ef e63d fd48 4cbd cdec 5ebd
00000100: 63ee 7bbd 259d b83d c5f7 ecba ec72 533d
00000110: bf6b c63d ebab 953d dd36 873d 5264 c3bc
00000120: b1b1 03bd 2110 d63d 875b 403d 2fba 64bd
00000130: 026d 033d 93f9 94bd b1f2 56bd 8300 133e
00000140: d719 1dbd e97c fabc f46d df3d f192 56bc
00000150: 3eea d8bd 611c 0c3e 1e25 67bd 7c35 ad3d
00000160: f065 363d 32be 113e 1628 9dbc 6b5f ab3d
00000170: 4de0 7d3d a160 333d 2d79 36bd 7461 c53c
00000180: cbdc eeba def2 5dbb 2cee 0fbe 2772 d23c
00000190: 70e6 993d d0bd 903d 7f1e 3abd e5d9 02bd
000001a0: 170c 99bd 5fa4 79bd f712 ed3d 04fb 2c3d
000001b0: 57b9 023e 562c 91bc 0d4e 8a3d 21fb cbbd
000001c0: f2f4 1d3a 4dcc a8bd 1a4f fa3d 1bff ab3d
000001d0: 0a81 693c 6d28 ccbc ce81 a5bd dfe6 ee3c
000001e0: 4411 d23d fa33 3c3d 66a6 093e 3cda eebd
000001f0: 2b2b 32bd 68d4 3abd be70 0dbd aa89 f1bb
00000200: 7c3e a4bc ff83 b93d 3509 243c d724 f33d
00000210: eb26 863d d4af efbd cfe5 c93d 4a40 80bd
00000220: c0f8 7ebc c656 6b3b 1702 c73d ff7b 08be
00000230: 4b3b a73d 3602 d23d 691c 643d a3b0 bfbd
00000240: cd9e 8dbd 8bf3 e53d 3ea1 b6bd 7168 9d3d
00000250: d326 c63c 9638 ac3d b394 f23d 70e2 0d3e
00000260: 64e5 49bd a698 1ebc d039 e5bc ffb2 063e
00000270: a0dd e3bd 0886 8f39 4b30 b53d dc8c 2c3e
00000280: 4d4a 603d 4f5a 8c3d 2542 0f3e f4a1 babd
00000290: 82de 1d3c 0609 4e3a 9d09 88bd 03da f1bc
000002a0: 23ce a6bd bd01 a53d 09cf a53d e5be 89bd
000002b0: e049 e9bd 95f9 cc3d 5c11 9cbd 68ae 233d
000002c0: 8b25 d6bd 9730 b4bc 9b56 ef3d 27e0 e0bd
000002d0: 1ec9 243e b347 4cbd 8e7c ab3c 8d4f a7bd
000002e0: 27b5 c33d aa68 313c d88c 27bc 710c bebd
000002f0: ff51 97bc 1920 9abd c135 e73d 1099 8d3d
00000300: 082a eb3d 8410 c6bd 71e8 fc3d 1abb e23d
00000310: d436 d6bd 0869 c43c 7fe6 7fbd c3cf 0e3e

fc.weight f4 [2, 50]
-0.035446286 0.09590275 -0.031656977 0.10860972 0.12603298 -0.0015315644 -0.05159623 0.06417512
-0.023712825 0.09197117 0.15265691 -0.060185973 0.14299567 0.08494269 -0.1104594 0.0054372977
0.06337726 0.059772998 0.033416335 0.14889245 -0.058988564 -0.110014915 0.12619348 0.029612282
0.13379835 -0.119167864 -0.11020406 -0.03124497 -0.075818576 -0.052686457 -0.043697074 -0.09767611
-0.12636423 -0.0773278 0.14809343 -0.13139483 -0.028668912 -0.052889597 0.12072589 -0.037739377
-0.01220495 -0.10598412 -0.04330738 0.056788906 0.01403598 -0.06366938 0.068020634 -0.08600861
0.054098956 -0.07618652 -0.12146528 0.0040650703 -0.019833608 -0.024627924 -0.04067526 -0.049105495
0.076984584 0.0037813983 0.0913823 0.10876208 0.04945047 0.009818142 0.095880605 -0.13190323
-0.061438587 0.090569384 0.11249447 0.019174924 -0.1166732 -0.013834549 -0.02920573 -0.027006902
0.079531096 -0.08916146 0.051217496 -0.033430293 -0.08661044 -0.07851443 -0.012015875 0.09649012
0.074280314 -0.05420453 -0.046118844 -0.13671207 0.1182916 0.07493708 -0.114848256 -0.05733522
0.08532891 -0.11727506 -0.13056265 -0.010955895 0.080884226 -0.10873407 -0.13353662 0.08640377
-0.045340203 0.07599868 0.0010970351 0.09018431
00000000: 2030 11bd a968 c43d bfaa 01bd c66e de3d
00000010: ca0e 013e c6be c8ba 9256 53bd 3f6e 833d
00000020: 6641 c2bc 615b bc3d 1852 1c3e 9185 76bd
00000030: 756d 123e 6ff6 ad3d 8a38 e2bd 5c2b b23b
00000040: f0cb 813d 88d4 743d 91df 083d 4377 183e
00000050: fe9d 71bd 804f e1bd dd38 013e 7595 f23c
00000060: 6f02 093e 480e f4bd abb2 e1bd 74f5 ffbc
00000070: c546 9bbd c1cd 57bd b4fb 32bd 6a0a c8bd
00000080: a065 01be 0a5e 9ebd cea5 173e 5e8c 06be
00000090: 11db eabc c3a2 58bd 233f f73d 9b94 1abd
000000a0: 45f7 47bc 340e d9bd 1463 31bd 7c9b 683d
000000b0: 2bf7 653c 1865 82bd 674e 8b3d 4825 b0bd
000000c0: de96 5d3d ae07 9cbd cac2 f8bd 4834 853b
000000d0: 177a a2bc 80c0 c9bc 1a9b 26bd d822 49bd
000000e0: 18aa 9d3d 56d1 773b a526 bb3d a7be de3d
000000f0: 938c 4a3d 46dc 203c 0d5d c43d a411 07be
00000100: 07a7 7bbd 717c b93d 8063 e63d bb14 9d3c
00000110: 5cf2 eebd 4eaa 62bc db40 efbc 943d ddbc
00000120: 33e1 a23d 499a b6bd 70c9 513d 34ee 08bd
00000130: d060 b1bd 2ccc a0bd 3cde 44bc 9d9c c53d
00000140: 4720 983d 9205 5ebd 1de7 3cbd 40fe 0bbe
00000150: de42 f23d 9d78 993d 9035 ebbd 56d8 6abd
00000160: ecc0 ae3d e82d f0bd 37b2 05be 5b80 33bc
00000170: a1a6 a53d f8af debd d3bd 08be 76f4 b03d
00000180: a6b6 39bd 32a5 9b3d 64ca 8f3a 8db2 b83d

fc.bias f4 [2]
0.12826964 0.008304442
00000000: 1e59 033e 5b0f 083c
