scripts/Ray/stock_price_model_ray_sparse.pth (torch, 48026 bytes, 6 tensors)

lstm.weight_ih_l0 f4 [200, 4]
0	0x3d579fa2	0.052642472
1	0x3cd9c3ad	0.026582563
2	0x3def6d69	0.1169079
3	0x3dae0fe9	0.08499128
4	0xbcff8f5a	-0.031196285
5	0x3d7118f0	0.058861673
6	0xbdbe3ddc	-0.092891425
7	0xbdb41f64	-0.0879505
8	0xbd7c8e84	-0.06165935
9	0x3cc23bfe	0.023710247
10	0x397dd1e8	0.00024206156
11	0x3e2eb464	0.17061001
12	0xbde3f219	-0.11130161
13	0xbd84536f	-0.06461226
14	0xbda905fc	-0.082530946
15	0x3cb96434	0.022630788
16	0xbcc981e2	-0.024598066
17	0x3de89a0b	0.11357506
18	0x3d42dc2a	0.047573246
19	0x3d7e22f0	0.062045038
20	0xbdcff477	-0.1015405
21	0x3e0d94a8	0.13826239
22	0x3da9604d	0.08270321
23	0x3d031229	0.03199974
24	0xbcf743a9	-0.03018363
25	0xbde84dd0	-0.113429666
26	0xbe0d5731	-0.13802792
27	0x3d34eeed	0.04417317
28	0x3d5bae7f	0.05363321
29	0xbdadea89	-0.08492
30	0x3a7c9aed	0.0009636123
31	0x3e13500d	0.14386006
32	0xbd3ed029	-0.046585236
33	0x3db66b36	0.089071676
34	0xbd819d86	-0.06328873
35	0x3c3949e0	0.011309117
36	0x3d18d2a6	0.037310265
37	0xbd3daf58	-0.0463098
38	0x3daa24c2	0.08307792
39	0x3e105476	0.1409472
40	0xbca94da7	-0.02066691
41	0x3d650ade	0.055918567
42	0x3e01ad17	0.12663685
43	0x3e0f2468	0.13978732
44	0x3e23b04b	0.15985219
45	0xbd697ad5	-0.057001907
46	0xbd05ff66	-0.03271427
47	0x3e0ed932	0.13950041
48	0xbdd20da4	-0.10256508
49	0xbdbc2605	-0.09186939
50	0x3cb8eca5	0.022573778
51	0x3e12e8c4	0.14346606
52	0xbdf9b517	-0.12192743
53	0xbcd81ea2	-0.026381794
54	0x3e0f4c7b	0.13994019
55	0xbcad159c	-0.021128468
56	0xbd8c2864	-0.068436414
57	0xbdd0eebd	-0.10201786
58	0xbcc62699	-0.024188327
59	0xbd723ef8	-0.059142083
60	0x3e020295	0.12696297
61	0xbcfb42a7	-0.03067143
62	0xbde10ebb	-0.10989138
63	0xbc964830	-0.018344969
64	0xbdbc6915	-0.0919973
65	0xbe13a961	-0.14420082
66	0xbdfd2796	-0.12361066
67	0xbda3723d	-0.079807736
68	0xbdcec7a0	-0.10096669
69	0x3de9ea56	0.11421649
70	0xbcb47286	-0.022027265
71	0xbda2b19b	-0.07944032
72	0x3d6efb62	0.058345206
73	0x3d3a5ac6	0.045496725
74	0x3dd43ddb	0.103633605
75	0x3d11bd87	0.035581138
76	0xbe1b8c6c	-0.15190285
77	0x3d9ba0ea	0.07599051
78	0xbb5f2224	-0.003404745
79	0xbdbf7ec4	-0.093503505
80	0x3e2f8721	0.17141391
81	0x3dc30eb9	0.095242925
82	0x3deabaf0	0.11461437
83	0x3e16ca98	0.14725721
84	0x3db21d10	0.086969495
85	0x3baab588	0.0052096285
86	0xbd413885	-0.04717304
87	0xbdce21ea	-0.10065062
88	0x3d9b2e5f	0.07577204
89	0xbd149453	-0.036274265
90	0xbe0f3772	-0.13985994
91	0xbddd59d7	-0.10808151
92	0x3e1a6ab0	0.1507976
93	0x3e1ee6a3	0.15517668
94	0xbd9fa6c0	-0.07795477
95	0x3ddc0961	0.107439764
96	0x3c654383	0.013993147
97	0xbc29a7bf	-0.010354935
98	0xba283290	-0.0006416226
99	0x3da9fc91	0.08300126
100	0x3d0d0cb6	0.03443595
101	0x3d982ffc	0.07431027
102	0xbe101fdd	-0.14074655
103	0xbde0bfd2	-0.10974087
104	0x3da8f47b	0.08249756
105	0x3e2ba999	0.16763915
106	0x3c3bb072	0.011455642
107	0xbd86d32b	-0.06583246
108	0x3ce8e802	0.028430942
109	0xbcab7ac6	-0.020932566
110	0xbe0d60b6	-0.13806424
111	0x3d9eeb42	0.077597156
112	0x3d116710	0.03549868
113	0x3dc9a59e	0.09846042
114	0x3d805dec	0.06267914
115	0x3d2e09a9	0.04248968
116	0x3dd417e6	0.10356121
117	0x3e03ef5f	0.12884282
118	0x3e1e653c	0.15468305
119	0x3e12764b	0.14302938
120	0xbe10f087	-0.14154254
121	0xbd8401f9	-0.06445689
122	0x3d75db9c	0.06002389
123	0x3d2bb05e	0.041916244
124	0x3d75deec	0.060027048
125	0x3e158db0	0.1460483
126	0xbdb92e89	-0.09042079
127	0x3da5f80b	0.08103951
128	0xbd5009a1	-0.050790433
129	0x3e220a81	0.1582432
130	0x3dd173ef	0.10227191
131	0xbcac2ccb	-0.021017453
132	0x3d689cf5	0.05679031
133	0xbdb4e8ad	-0.08833442
134	0x3ccb52a4	0.02481968
135	0x3dfe7f3c	0.12426612
136	0xbdb6974e	-0.08915578
137	0x3c6c6d8e	0.014430417
138	0xbd6d7f6a	-0.05798284
139	0xbdb6b38f	-0.08920967
140	0x3d2d182d	0.042259384
141	0x3e1bd6a9	0.15218605
142	0xbd3f5efa	-0.046721436
143	0x3cbefa41	0.02331269
144	0x3db2dfd9	0.08734102
145	0x3d704db2	0.058667846
146	0x3dd3113b	0.10306021
147	0xbe172d2b	-0.14763324
148	0x3df11e91	0.11773408
149	0x3db23e98	0.08703345
150	0xbd00e03e	-0.031463854
151	0xbcb10309	-0.021607893
152	0x3e017018	0.12640417
153	0x3c4e517c	0.01259267
154	0xbc7254c3	-0.014790717
155	0x3c14acca	0.009074399
156	0x39f12d00	0.0004600063
157	0xbe0387df	-0.128448
158	0x3dcfb5e1	0.101421125
159	0x3d72c89a	0.05927334
160	0x3d0497a4	0.03237118
161	0xbdc51c4f	-0.0962454
162	0xbcf29c82	-0.029615644
163	0xbe1e03f9	-0.15431203
164	0x3e275b29	0.16343369
165	0x3dc115bc	0.09427974
166	0xbdaded23	-0.08492496
167	0xbd907443	-0.07053425
168	0xbd8ce262	-0.068791166
169	0x3c5e2c1e	0.013560323
170	0x3d2eb01d	0.042648423
171	0x3d949720	0.07255387
172	0x3d681e18	0.056669325
173	0xbc2c3d75	-0.010512699
174	0x3e06263c	0.13100523
175	0xbcf5eeda	-0.03002112
176	0xbda8465a	-0.082165435
177	0x3d6bea79	0.057596657
178	0xbcbed1a9	-0.023293333
179	0xbdbc93bb	-0.09207865
180	0x3c93e5e5	0.018053958
181	0xbdc37fd8	-0.09545869
182	0xbc1c5f19	-0.009544157
183	0xbdd0e5c7	-0.102000766
184	0x3dcb9fd0	0.09942591
185	0xbde8ebb7	-0.11373084
186	0xbcb9c7c5	-0.022678265
187	0x3cbc5cb4	0.022993423
188	0x3d2e64cc	0.042576596
189	0x3d83aa3a	0.064289525
190	0x3d9312b0	0.07181299
191	0x3d50bbb4	0.050960258
192	0xbd52ac9f	-0.051434156
193	0xbdcdd3ac	-0.10050139
194	0xbdc1ce3b	-0.094631635
195	0x3cbe205e	0.023208793
196	0x3dadc22d	0.08484302
197	0xbc00a5c7	-0.007852024
198	0xbdae7091	-0.08517564
199	0x3e008f2d	0.12554617
200	0xbca5aec0	-0.020224929
201	0x3c833119	0.016014623
202	0xbdb7f8dc	-0.08983013
203	0x3cffd2b0	0.031228393
204	0xbe1337b7	-0.14376722
205	0x3b8f2a13	0.0043690293
206	0x3ce43374	0.027856566
207	0xbd8304cd	-0.063974
208	0x3da17fb0	0.078856826
209	0x3dd5771d	0.1042311
210	0x3a9bdfeb	0.0011892294
211	0x3dd5dd78	0.104426324
212	0x3daeb388	0.085303366
213	0xbe109863	-0.14120631
214	0xbdbfe0b2	-0.09369029
215	0x3db2efd1	0.087371476
216	0xbdc321ab	-0.09527906
217	0x3c656d27	0.014003075
218	0x3c873c56	0.016508263
219	0x3da77cfd	0.081781365
220	0x3c01befc	0.007919069
221	0xbd7d4195	-0.061830122
222	0xbd94a928	-0.072588265
223	0xbdd7ce86	-0.10537438
224	0x3d0cc8c5	0.034371156
225	0xbda0f239	-0.078587
226	0x3df92264	0.121647626
227	0x3d463682	0.048391826
228	0x3cea37de	0.028591093
229	0x3dba0e8f	0.09084808
230	0x3e21f803	0.15817265
231	0x3dfeb483	0.12436774
232	0xbd8e7d13	-0.0695745
233	0xbd7d95a8	-0.0619103
234	0xbd7156a4	-0.058920518
235	0x3ad4e11d	0.0016241405
236	0x3da8af23	0.0823653
237	0x3dd46ba7	0.103720956
238	0xbd9a8b3c	-0.07546088
239	0x3d5a9b70	0.053370893
240	0x3e16bbc7	0.14720069
241	0xbdb2f3c3	-0.087379
242	0xbcd9f4e4	-0.02660603
243	0x3da71f36	0.0816025
244	0x3e0bad0a	0.13640228
245	0x3e19b0ec	0.15008897
246	0x3a1ef18f	0.0006063217
247	0x3ddbf229	0.10739548
248	0xbdb6e4e5	-0.08930377
249	0x3cb01f94	0.021499433
250	0xbdbec80f	-0.09315502
251	0x3df8f933	0.12156906
252	0xbde3bbfa	-0.11119838
253	0x3d944b13	0.07240882
254	0x3d01b519	0.03166685
255	0x3c287ed3	0.0102841435

lstm.weight_hh_l0 f4 [200, 50]
0	0xbe049474	-0.12947255
1	0xb9a57145	-0.00031555645
2	0x3ab7761a	0.0013996989
3	0x3acc5ffb	0.0015592569
4	0x396c5d27	0.00022541416
5	0x3aa57623	0.0012623708
6	0xbe04fe9c	-0.12987751
7	0xba949613	-0.001133623
8	0xb8f8750a	-0.00011847362
9	0x3abf116a	0.0014577333
10	0x3a30a4e9	0.0006738441
11	0xb9c33cf6	-0.00037238718
12	0x3e153fbf	0.14575098
13	0x3a844cbb	0.0010093668
14	0xb96689a2	-0.00021985781
15	0x39e07c23	0.00042817098
16	0xba331f48	-0.00068329694
17	0x3a96b97c	0.001149937
18	0xb938c375	-0.00017620421
19	0xbb73baab	-0.003719012
20	0x3a42cc20	0.00074309297
21	0xb9f81448	-0.00047317357
22	0xba666163	-0.00087883155
23	0xba93ab52	-0.0011266267
24	0x3ba5b1da	0.005056602
25	0x3df20c46	0.11818747
26	0xba1c61c7	-0.00059654977
27	0x3aec2383	0.0018015954
28	0xbe233d16	-0.15941271
29	0xb98e91d5	-0.00027193004
30	0x3dff8ec0	0.12478399
31	0xb9315e12	-0.0001691508
32	0x39359d96	0.0001732021
33	0x3a7cbcb9	0.0009641159
34	0xb98e03d5	-0.00027087206
35	0xbdfa89cc	-0.12233314
36	0x3b3eec6d	0.002913262
37	0xb988d4dc	-0.00026098534
38	0xbdfad844	-0.12248281
39	0x3a66cdd0	0.0008804472
40	0xbb505292	-0.0031787497
41	0x392d7d24	0.00016545184
42	0xbaf5ae90	-0.001874404
43	0x379df2aa	1.8828858e-05
44	0x38e64c8d	0.00010981513
45	0xb9aa7b68	-0.00032516872
46	0xbba046b3	-0.0048912405
47	0xbb3b267f	-0.002855688
48	0xbae66bd8	-0.0017579747
49	0xba9e00be	-0.0012054665
50	0x3b28db37	0.0025765428
51	0xba0e0f18	-0.0005419119
52	0xbe0ab98d	-0.13547345
53	0xb93e213e	-0.00018132196
54	0xbb1c4719	-0.0023846088
55	0x3e2d7101	0.16937639
56	0xba858c53	-0.0010188915
57	0x3b30783c	0.0026927134
58	0x3ae66893	0.0017578773
59	0xbb29c3a5	-0.0025903967
60	0x3ac6c20d	0.0015164033
61	0xba95a2bd	-0.0011416298
62	0xbdef2942	-0.11677791
63	0x3a874620	0.0010320581
64	0x3ac639fa	0.001512348
65	0x3e01da1e	0.12680861
66	0x39805767	0.00024479182
67	0xb7b84108	-2.1964792e-05
68	0x3af9099f	0.001900006
69	0x38c2a550	9.281433e-05
70	0x3ae450be	0.0017419083
71	0xbae72b7c	-0.0017636861
72	0x3a82e3d2	0.0009986109
73	0xbafd1b84	-0.0019310568
74	0xbb06697f	-0.0020509658
75	0xb7c15d8f	-2.305096e-05
76	0xbb087c67	-0.0020826103
77	0x3ac780d7	0.0015220892
78	0x3b13e0ca	0.0022564405
79	0xbaa365e6	-0.0012466281
80	0xbe1ef1a3	-0.15521865
81	0x3decae8a	0.11556728
82	0x3de2f865	0.11082534
83	0x3ac3a55d	0.0014926601
84	0x3aefe1ae	0.0018301511
85	0x3af4b4b7	0.001866958
86	0xb96dd1b5	-0.00022680203
87	0x3e101068	0.14068758
88	0x3b2935b9	0.0025819375
89	0x3aabe48d	0.0013114378
90	0x3df3abd9	0.11898012
91	0x3ac31112	0.0014882407
92	0x39857646	0.00025455857
93	0x3b00e49f	0.0019667519
94	0x3b06cd19	0.0020569025
95	0xbadebeb5	-0.0016994091
96	0xb8027206	-3.1100608e-05
97	0xb9855bd6	-0.0002543616
98	0xb8c35766	-9.314604e-05
99	0xbac2ee15	-0.0014871979
100	0x3b782209	0.0037862083
101	0xba6e95f7	-0.0009101326
102	0xbb74ac07	-0.0037333982
103	0xb89e361e	-7.544107e-05
104	0x3de2b8df	0.110704176
105	0x3b7dc061	0.0038719403
106	0xba947a7e	-0.001132801
107	0xbe108830	-0.14114451
108	0x3b20c4f2	0.002453145
109	0xbb8c984a	-0.004290615
110	0x3ac967a4	0.001536597
111	0xbaee0692	-0.0018159917
112	0xbb1f2975	-0.0024286185
113	0x3ab52dee	0.0013822892
114	0x3ae36171	0.0017347765
115	0x3df8003c	0.1210942
116	0xbbaca555	-0.0052687326
117	0xbb949554	-0.004534403
118	0x3b300f92	0.002686475
119	0x3b7881a9	0.003791908
120	0x3b3dea41	0.0028978738
121	0xbb6feac6	-0.0036608442
122	0x3ac2f4cc	0.001487398
123	0xbb1d38c0	-0.0023990124
124	0xbbb25e7f	-0.0054433937
125	0x3c2c399a	0.01051178
126	0xbb848cf1	-0.004045122
127	0x3b5a2574	0.0033286484
128	0x3b584b14	0.0033003734
129	0xbad43d21	-0.0016192534
130	0x3b6a7bc9	0.0035779348
131	0x3b0835cc	0.0020784019
132	0xbb86cd4a	-0.004113828
133	0x3b1e8b44	0.0024191895
134	0xbe05fafd	-0.13084026
135	0x3b74ce9b	0.0037354592
136	0xbab65274	-0.0013910071
137	0x3b0f28ce	0.002184439
138	0x3c1c4e77	0.009540192
139	0x3dfa1dfb	0.122127496
140	0xbabe1fc1	-0.0014505313
141	0xbe212552	-0.15736893
142	0x3bb4c750	0.005516924
143	0x3b81aae8	0.003957141
144	0x3b5073a4	0.0031807208
145	0x3df2fec8	0.11865002
146	0x3b8d27cf	0.004307724
147	0x3b5b3158	0.003344616
148	0xbbeef352	-0.0072921896
149	0xbb29a84b	-0.0025887664
150	0x3e0318ea	0.12802473
151	0xbe1682a0	-0.14698267
152	0xbbdcd96c	-0.006739786
153	0x3e0ea6c3	0.13930802
154	0xbbbc62d1	-0.0057490845
155	0xbe016d36	-0.12639317
156	0x3ab0bc72	0.0013483895
157	0x3bd69b7b	0.0065492964
158	0x3bc75dc5	0.0060841762
159	0xbbd67568	-0.0065447576
160	0xbde317e3	-0.110885404
161	0xbbabd2cf	-0.005243636
162	0xbbb6fa1b	-0.005584014
163	0x3b804717	0.0039147246
164	0x3bc720ec	0.0060769226
165	0x3baca27a	0.005268392
166	0x3a8603c6	0.0010224513
167	0xbbe9ae7c	-0.007131396
168	0x3bbe6744	0.00581065
169	0x3e093754	0.13400012
170	0x3ba3178e	0.004977173
171	0xbba23493	-0.004950115
172	0x3e06b33e	0.13154313
173	0xbb97d348	-0.004633341
174	0xbc0c4a2d	-0.008562607
175	0x3c15429b	0.009110118
176	0xbbb0698b	-0.0053836755
177	0x3b715e30	0.0036829822
178	0x3bd0bd9b	0.006370259
179	0xbba9392c	-0.005164286
180	0x3df6f486	0.12058358
181	0x3bbf0d81	0.005830467
182	0xbbae59b8	-0.005320754
183	0xbde3e625	-0.11127881
184	0x3e115a9a	0.14194718
185	0x3dffac8c	0.124840826
186	0xbbf06409	-0.007336144
187	0x3e019f1c	0.12658352
188	0xb9fd8c07	-0.0004836025
189	0x3bae1197	0.0053121555
190	0xbb5d2c68	-0.0033748392
191	0x3e055344	0.13020045
192	0x3bf2557b	0.007395444
193	0x3bbd6ced	0.005780807
194	0x3bb4b533	0.0055147647
195	0xbdf98bd9	-0.12184877
196	0x3c0669de	0.008203952
197	0xbdf5c6ec	-0.12000832
198	0x3e0663f3	0.13124065
199	0xbb9a97e6	-0.0047178147
200	0xba34479b	-0.0006877125
201	0xb9440e22	-0.00018697281
202	0x3b0afbd3	0.0021207228
203	0x3b7d2f5a	0.003863296
204	0x3a98585d	0.0011623014
205	0xb9c728b6	-0.0003798657
206	0xbe092e46	-0.13396558
207	0xbac30db4	-0.0014881403
208	0xbb092b4c	-0.0020930348
209	0x3ae9974c	0.0017821579
210	0xbe060744	-0.13088709
211	0x3add8307	0.0016900011
212	0x3acadc56	0.0015477042
213	0xba761968	-0.0009387941
214	0xbb0ef68a	-0.002181443
215	0xbabef2bd	-0.0014568191
216	0xbacfb78e	-0.001584755
217	0x3a659161	0.000875732
218	0xbe0ce2e3	-0.13758425
219	0xbb65e4ff	-0.003507912
220	0xba9cf96f	-0.0011976192
221	0x3e0938ef	0.13400625
222	0xbb3f753f	-0.0029214171
223	0x3a99fa30	0.0011747535
224	0x3b4ee250	0.0031567998
225	0xbaf7be75	-0.0018901365
226	0x3a926b3e	0.0011170877
227	0xb93a3cdc	-0.00017761014
228	0xbb054d05	-0.0020340097
229	0x3adfe562	0.0017081911
230	0x3a2492a6	0.0006277956
231	0xbb03eed6	-0.002013137
232	0x3a6a2996	0.00089325884
233	0xba91c33b	-0.0011120805
234	0xbabc518d	-0.0014367566
235	0xba47fcc2	-0.00076289114
236	0x3b457e28	0.003013501
237	0xbe0c6e5e	-0.13713977
238	0x3ba69c54	0.0050845537
239	0x3e00735b	0.12544005
240	0x3a51ad22	0.0007998516
241	0xbaaeba7e	-0.0013330725
242	0xbb1a05b0	-0.0023501925
243	0xbab5ef88	-0.001388059
244	0xbe0c42c5	-0.13697346
245	0x3aaaf319	0.001304242
246	0xbb26b583	-0.002543778
247	0x3e07cc4a	0.13261524
248	0xba2f2536	-0.0006681265
249	0x3a8f1796	0.0010917063
250	0x3a97a123	0.0011568408
251	0x38d6a0fc	0.00010234301
252	0x3a96d987	0.001150892
253	0x3ab7779d	0.001399744
254	0x37ca6eb6	2.413183e-05
255	0x3aa95aee	0.0012920776

lstm.bias_ih_l0 f4 [200]
0	0x3db309c4	0.08742097
1	0xbe0f0994	-0.13968498
2	0xbde7788e	-0.11302291
3	0xbe02bc70	-0.12767196
4	0x3e0fa684	0.14028364
5	0x3cda99c9	0.026684659
6	0xbe1e8df3	-0.15483837
7	0x3d2697f6	0.040672265
8	0xbcd460da	-0.025925089
9	0x3da841e1	0.082156904
10	0x3db0fccf	0.086419694
11	0xbc562714	-0.01307084
12	0xbdbead6e	-0.09310423
13	0x3d35feae	0.044432335
14	0x3d694365	0.056949038
15	0xbdf35168	-0.118807614
16	0x3d63c8df	0.055611487
17	0x3dd6c24a	0.104862764
18	0xbd0353e0	-0.03206241
19	0x3de5e44a	0.11225183
20	0x3d8cba63	0.06871488
21	0xbd9d1f61	-0.07672001
22	0x3a36d84f	0.00069749815
23	0x3c6c82a5	0.014435445
24	0xbdb5a5b6	-0.088694975
25	0x3da3c1e0	0.07995963
26	0x3e29db58	0.16587579
27	0x3a0ad860	0.00052965246
28	0xbdb6cd12	-0.08925833
29	0xbcdfcfe4	-0.02732081
30	0x3c883057	0.016624613
31	0xbc6c2bce	-0.014414741
32	0x3e074494	0.13209754
33	0xbdc851f0	-0.09781253
34	0xbdb5830b	-0.08862885
35	0xbd56be52	-0.052427597
36	0xbdc782ad	-0.09741721
37	0x3c317a51	0.010832385
38	0x3e41f23a	0.18940058
39	0xbdf5ca96	-0.12001531
40	0x3dbc81b3	0.09204426
41	0xbddc63b4	-0.10761204
42	0x3d996c3a	0.07491346
43	0x3b9548f6	0.0045558168
44	0x3e1090dc	0.1411776
45	0x3d940a4c	0.072285265
46	0xbdd27aad	-0.10277305
47	0xbd4b826b	-0.049684923
48	0x3d4a62a4	0.049410477
49	0x3d3e76f9	0.04650018
50	0xbd2ce4b3	-0.042210292
51	0xbe15c16f	-0.1462457
52	0x3c8e42b4	0.01736579
53	0xbde61595	-0.11234585
54	0x3d942134	0.072328955
55	0xbb1b5d5e	-0.0023706774
56	0x3d49e470	0.04929012
57	0x3cc66381	0.024217369
58	0x3e20cd6a	0.15703359
59	0xbc3d4e87	-0.011554367
60	0xbc17fdd2	-0.009276824
61	0x3d50cebe	0.050978415
62	0xbcf7c73a	-0.030246366
63	0xbe06edf0	-0.13176703
64	0xbc90617e	-0.017624613
65	0xbd3bb506	-0.045826934
66	0x3d271813	0.040794443
67	0x3d9c8ec5	0.076444186
68	0x3d5ad36f	0.053424295
69	0xbde94067	-0.11389237
70	0xbd82e07b	-0.063904725
71	0xbd0b1cca	-0.033963002
72	0x3de377e9	0.111068554
73	0x3d06724f	0.032823857
74	0x3d4cf72c	0.05004041
75	0x3df17c3a	0.117912725
76	0x3e0bab60	0.13639593
77	0xbca11e00	-0.019667625
78	0x3e008378	0.12550151
79	0x3dab6815	0.083694614
80	0xbd19ecee	-0.03757947
81	0xbd46566b	-0.04842226
82	0x3bd67f36	0.0065459264
83	0x3df04127	0.11731177
84	0x3dd59612	0.10429014
85	0x3b8f13ba	0.0043663653
86	0x3c9c74f6	0.01909874
87	0xbda38be2	-0.07985665
88	0x3e3b8acd	0.18314667
89	0x3d95e52e	0.07319103
90	0xbd7b19ef	-0.06130403
91	0x3e182d98	0.14861143
92	0xbbd0479b	-0.0063561923
93	0x3e0e57bf	0.1390066
94	0xbd25ba4c	-0.04046087
95	0x3e1db762	0.15401986
96	0xbd23485d	-0.039863933
97	0x3d0fc187	0.03509667
98	0xbdcf5575	-0.101237215
99	0xbd84e19b	-0.06488343
100	0xbe1e5096	-0.15460429
101	0xbd979bbf	-0.07402753
102	0xbde10aa4	-0.10988358
103	0xbd8812da	-0.06644221
104	0xbd9f47c7	-0.07777362
105	0x3dfd0e2a	0.12356217
106	0x3d111204	0.03541757
107	0x3dbb2d50	0.09139502
108	0x3d64f7e2	0.055900462
109	0xbd8e5b9a	-0.06951065
110	0xbd880fb4	-0.0664362
111	0x3e186753	0.14883165
112	0x3c10da89	0.008841165
113	0xbdba5730	-0.09098661
114	0xbd13dcd5	-0.036099274
115	0xbdb3e077	-0.08783048
116	0xbbf3b629	-0.0074374867
117	0xbda39bbd	-0.07988689
118	0xbd5ba2c4	-0.053622022
119	0x3d94878e	0.072524175
120	0xbd8a46d0	-0.06751788
121	0xbd4b416b	-0.049622934
122	0x3d8ea216	0.06964509
123	0x3d988474	0.074471384
124	0xbd8b5467	-0.06803208
125	0x3dea0496	0.11426656
126	0x3d4af917	0.049553957
127	0x3dc9d12c	0.098543495
128	0xbd278c91	-0.04090554
129	0x3e12ee88	0.14348805
130	0xbd21a5ef	-0.039464887
131	0xbd9ddc6c	-0.07708058
132	0xbdd90bc1	-0.10597945
133	0xbd9efdb7	-0.07763236
134	0x3d9ce0be	0.07660054
135	0x3ce7ebaf	0.028310625
136	0xbde3c416	-0.11121385
137	0xbd581dd8	-0.052762836
138	0x3df4cedc	0.11953518
139	0x3d7157fe	0.058921807
140	0x3dda5073	0.10659876
141	0xbc961253	-0.018319285
142	0x3db5def1	0.08880413
143	0x3dab3c99	0.083611675
144	0x3df0f129	0.11764748
145	0x3a044dd1	0.0005046996
146	0x3d2a1494	0.04152353
147	0x3ddb98d5	0.1072251
148	0xbd1792a5	-0.037005085
149	0x3bbc4485	0.005745473
150	0xbdcb1662	-0.099163786
151	0x3cd7ec49	0.026357787
152	0xbde6d092	-0.112702504
153	0xbdb2d91a	-0.08732815
154	0x3d2e28e6	0.042519473
155	0xbdcc666a	-0.099804714
156	0x3d5460bd	0.05185007
157	0xbd4c5eff	-0.049895283
158	0xbdaf6b53	-0.08565392
159	0x3e20aa80	0.1569004
160	0x3dfc3e00	0.12316513
161	0x3daa4aba	0.08315034
162	0xbd2faec5	-0.042891283
163	0xbd89d683	-0.06730368
164	0x3be06d92	0.0068489993
165	0x3e113040	0.14178562
166	0xbd98f7ac	-0.07469115
167	0x3d3baa36	0.045816623
168	0x3e19de9f	0.1502633
169	0x3d5ee7b2	0.05442018
170	0xbc68f033	-0.014217424
171	0xbd646720	-0.05576241
172	0xbdfb8da7	-0.122828774
173	0x3dddf494	0.10837665
174	0x3c17907c	0.009250756
175	0xbe2484e6	-0.16066322
176	0x3d788264	0.060671225
177	0x3c024428	0.00795082
178	0xbd895518	-0.067056835
179	0x3e1c3391	0.15254046
180	0xbd540f76	-0.051772557
181	0xbd4eb123	-0.0504619
182	0xbd4c4a84	-0.04987575
183	0x3d350790	0.044196665
184	0xbd8014d3	-0.06253972
185	0x3e0fbef8	0.14037693
186	0xbe0cdf91	-0.13757159
187	0xbd8fc07d	-0.07019136
188	0x3d7f32eb	0.06230442
189	0xbd87aae3	-0.06624391
190	0xbcf707b1	-0.030155035
191	0xbdccebc6	-0.10005908
192	0xbdef293c	-0.11677787
193	0xbd0d2778	-0.03446147
194	0xbde1cb76	-0.11025135
195	0xbca4dba2	-0.02012426
196	0xbd0db056	-0.034591995
197	0x3c84ba6a	0.01620217
198	0xbc292c9e	-0.010325579
199	0xbdadd878	-0.08488554

lstm.bias_hh_l0 f4 [200]
0	0xbdbec641	-0.09315158
1	0x3dda0272	0.10644998
2	0xbde17b12	-0.11009802
3	0x3c61ad12	0.013774173
4	0x3e07dfb7	0.13268934
5	0xbc20d1a6	-0.009815609
6	0xbdb0a7a9	-0.08625729
7	0xbd7001ff	-0.058595654
8	0xbcda2ab4	-0.02663169
9	0x3e0aed57	0.135671
10	0xbcc7d943	-0.02439559
11	0x3e00753e	0.12544724
12	0x3dee1df9	0.116268106
13	0x3d9aba6e	0.0755509
14	0xbc6a673f	-0.014306842
15	0xbc03010d	-0.007995856
16	0x3cd394ec	0.025827847
17	0x3da3ba1a	0.079944804
18	0x3d873f12	0.066038266
19	0xbcd921d2	-0.026505385
20	0x3e0f8ae5	0.14017828
21	0xbdd81e0a	-0.105526045
22	0x3dd1d4d4	0.10245672
23	0x3db5e404	0.08881381
24	0x3e088048	0.13330185
25	0xbd815f01	-0.06316949
26	0xbd863cf8	-0.065545976
27	0xbd9686f7	-0.07349961
28	0x3d0e9b2b	0.03481595
29	0xbdfe2091	-0.12408555
30	0xbe0a4864	-0.13504177
31	0xbdcbf6e9	-0.09959204
32	0xbd5d1a87	-0.053980377
33	0x3d3c26a3	0.045935284
34	0x3e149661	0.1451049
35	0xbd134fb1	-0.03596467
36	0xbd807c30	-0.06273687
37	0x3cab24fd	0.02089166
38	0x3b6b2666	0.0035881042
39	0x3e08e6b3	0.13369255
40	0x3d31b583	0.043385994
41	0x3d7e3429	0.062061463
42	0xbe187b5c	-0.14890808
43	0x3de391f2	0.11111821
44	0x3d6455d6	0.055745922
45	0x3e0e8d24	0.13921028
46	0xbd8198b9	-0.06327958
47	0x3c800d68	0.015631393
48	0x3d6605b6	0.05615779
49	0xbd07866b	-0.033087175
50	0xbdb1cf05	-0.08682064
51	0x3d0cb6bc	0.034353957
52	0xbd6a990b	-0.05727486
53	0xbcc0eed5	-0.023551384
54	0x3c11d2d6	0.008900365
55	0x3d80090a	0.06251724
56	0xbddf206c	-0.10894856
57	0x3d81f9c8	0.0634647
58	0x3d2f647a	0.04282043
59	0x3db1243c	0.08649489
60	0xbdd0a117	-0.101869754
61	0x3e261b50	0.16221356
62	0x3dc5ebd0	0.09664118
63	0xbdef47e1	-0.11683632
64	0x3df24be2	0.1183088
65	0x3c8bb25f	0.017052827
66	0xbd22cd4c	-0.039746568
67	0xbd868b2a	-0.06569512
68	0x3e0cfe0b	0.13768785
69	0xbde1beaa	-0.110226944
70	0x3db25b12	0.087087765
71	0x3ce92e66	0.028464507
72	0xbd8c4b79	-0.06850333
73	0x3e10816a	0.14111868
74	0x3c4b7e5a	0.012420261
75	0x3ddba196	0.107241794
76	0xbd672b04	-0.056437507
77	0xbd32a218	-0.043611616
78	0x3e004822	0.12527516
79	0x3cc27cde	0.023741182
80	0x3dcc50a9	0.09976322
81	0xbcbfd6e3	-0.023417896
82	0x3dc0fee5	0.09423617
83	0x3dc67e5e	0.096920714
84	0x3d5a9c12	0.053371496
85	0xbd23bd48	-0.039975435
86	0x3dfaaece	0.122403726
87	0xbdabe1f5	-0.08392707
88	0x3d10f859	0.035393093
89	0xbdc2239e	-0.0947945
90	0xbdf54adc	-0.11977169
91	0xbdb5076e	-0.08839308
92	0x3dc23226	0.09482221
93	0xbdae2e90	-0.08504975
94	0x3e2a8b0b	0.16654603
95	0xbdd18bc9	-0.1023174
96	0x3cffa8bd	0.03120839
97	0x3db35a01	0.08757401
98	0xbe19e89b	-0.15030138
99	0xbcd392e7	-0.025826884
100	0x3db508d7	0.08839577
101	0x3d808664	0.06275633
102	0xbd3c621c	-0.045992002
103	0x3de96a86	0.11397271
104	0x3d96a779	0.073561616
105	0xbe1c996d	-0.15292902
106	0x3cf02ef4	0.029319264
107	0x3dcfe7cb	0.10151633
108	0xbe0d0734	-0.13772279
109	0xbd2fe29f	-0.042940732
110	0xbdd97550	-0.10618079
111	0x3dcd86f8	0.10035509
112	0x3dd8d231	0.10586966
113	0xbdd64668	-0.10462648
114	0xbbd3f079	-0.0064678756
115	0x3d810951	0.06300605
116	0xbc3d14d8	-0.011540614
117	0xbdbbdb1d	-0.09172652
118	0x3c03f0cc	0.008053016
119	0x3da6dd8d	0.08147726
120	0xbdb17bb0	-0.0866617
121	0x3c8a6ceb	0.01689764
122	0xbd9ff825	-0.07811002
123	0x3dc415fc	0.09574506
124	0xbd4793de	-0.048725
125	0x3dd2e34f	0.10297262
126	0x3c2dbbf8	0.010603897
127	0xbdaad95e	-0.08342241
128	0x3da3b825	0.07994107
129	0x3e00d55a	0.12581387
130	0xbdc46443	-0.09589436
131	0xbd028ed3	-0.03187449
132	0x3c8584c4	0.01629866
133	0xbe1270b5	-0.14300807
134	0xbd6efa72	-0.058344312
135	0xbdafe699	-0.08588905
136	0xbc908912	-0.017643485
137	0x3c7c1a22	0.01538709
138	0x3cac3fee	0.021026578
139	0xbe12d698	-0.14339674
140	0x3d3d4f8e	0.046218447
141	0xbd98e533	-0.07465591
142	0xbca2fafd	-0.019895071
143	0xbe1d120e	-0.15338919
144	0xbe21a8d7	-0.15787064
145	0x3db2a223	0.087223314
146	0x3da3f0b7	0.08004897
147	0x3de2b927	0.11070471
148	0x3d06a1f2	0.032869287
149	0x3dfa6917	0.122270755
150	0x3db10482	0.08643438
151	0x3d3e891b	0.046517473
152	0x3cd9fb2a	0.026609022
153	0x3da12e59	0.07870168
154	0xbd625326	-0.055255078
155	0x3d945e56	0.07244556
156	0x3d65187d	0.055931557
157	0x3e2b6272	0.16736773
158	0xbdc00035	-0.093750395
159	0x3e2b4a60	0.1672759
160	0xbd48a40e	-0.04898458
161	0xbd1168a2	-0.035500176
162	0x3d8e5c12	0.06951155
163	0xbdd27f21	-0.10278154
164	0xbd2a4eb2	-0.041578956
165	0xbd289fc8	-0.041168004
166	0xbe0127b5	-0.12612803
167	0x3df48cd2	0.11940922
168	0x3d8bd626	0.06827955
169	0xbd18e2d9	-0.037325714
170	0xbd8bfacf	-0.06834947
171	0xbc9b355c	-0.018946342
172	0xbdc578e2	-0.09642197
173	0x3e092a8c	0.13395137
174	0xbd7f6bf5	-0.062358815
175	0x3d3c503e	0.045974962
176	0xbd514a10	-0.051096022
177	0xbc9d3f71	-0.01919529
178	0x3e21232c	0.15736073
179	0xbdda6509	-0.10663802
180	0x3d2c304a	0.04203824
181	0x3db94052	0.09045471
182	0x3c117c03	0.008879664
183	0x3c0b30a2	0.008495482
184	0xbdb354e2	-0.087564245
185	0x3db16a27	0.08662825
186	0xbc5a803c	-0.0133362375
187	0x3dcdd9cf	0.10051309
188	0xbd93149e	-0.07181667
189	0x3de8a6c4	0.11359933
190	0xbe1a5992	-0.15073231
191	0xbdec2a27	-0.115314774
192	0x3d7492c2	0.05971027
193	0x3de39b33	0.11113586
194	0xbd93dce0	-0.07219863
195	0x3d327f76	0.043578587
196	0xbdbb98b4	-0.09159985
197	0xbd0d42ec	-0.03448765
198	0xbda2ae38	-0.07943386
199	0x3de6a100	0.11261177

fc.weight f4 [2, 50]
0	0xbb5c5f68	-0.0033626202
1	0xbd9a3301	-0.075292595
2	0x3d86f021	0.0658877
3	0x3db92d91	0.09041894
4	0x3d9ae40c	0.07563028
5	0xbd64895d	-0.055795062
6	0x3c299225	0.010349785
7	0xbdd178b9	-0.10228104
8	0xbe2d3af8	-0.16917026
9	0x3d9137eb	0.07090744
10	0x3d2eaf7b	0.04264782
11	0x3da7fe44	0.08202794
12	0x3daf4663	0.08558347
13	0x3bbc099b	0.0057384497
14	0xbdf81d4b	-0.12114962
15	0xbdab34ec	-0.083597034
16	0x3d919abf	0.071095936
17	0x3d7ac5bc	0.06122373
18	0xbdd85a91	-0.10564149
19	0xbdd87997	-0.105700664
20	0xbd32a174	-0.043611005
21	0x3d6f6f18	0.058455557
22	0xbdf59d35	-0.119928755
23	0x3dc2c433	0.09510078
24	0x3d80623d	0.062687375
25	0xbcbef1c9	-0.023308652
26	0x3e310f91	0.17291094
27	0xbdd262ba	-0.10272737
28	0xbdb6dba6	-0.08928613
29	0x3c08aaca	0.008341501
30	0xbd4c95ae	-0.049947433
31	0xbdf26805	-0.118362464
32	0x3ca7f333	0.020501709
33	0xbc2fa5c9	-0.010720679
34	0xbce7ac44	-0.028280385
35	0xbb119590	-0.002221439
36	0x3dc214c1	0.09476615
37	0x3d1a906f	0.0377354
38	0x3d120d76	0.03565737
39	0xbdce39af	-0.10069596
40	0x3d9ab822	0.07554652
41	0x3d5df80e	0.05419164
42	0xbdb81916	-0.0898916
43	0xbe20e11a	-0.1571087
44	0xbe266aee	-0.16251728
45	0x3a0b7732	0.00053201907
46	0xbdc94415	-0.09827439
47	0xbcde4183	-0.027130848
48	0xbc5053bc	-0.012715276
49	0x3d8c344a	0.06845911
50	0xbde464a3	-0.111520074
51	0x3dffee3a	0.1249661
52	0x3d8d4438	0.06897777
53	0xbd89fd45	-0.067377605
54	0x3e06351e	0.131062
55	0xbe14b4e5	-0.14522131
56	0x3dd54c80	0.10414982
57	0xbe25167f	-0.16121863
58	0x3dbdb664	0.09263304
59	0x3d1c4749	0.03815392
60	0xbdefc0ab	-0.117066704
61	0x3d2aace4	0.041668788
62	0x3e0089ee	0.12552616
63	0xbd9a06ad	-0.075208046
64	0xbdae12e4	-0.08499697
65	0x3dbdb959	0.09263868
66	0xbd92d0a5	-0.07168702
67	0xbd3a43b3	-0.04547472
68	0xbcef3641	-0.029200675
69	0x3ddfc307	0.109258704
70	0xbbe2c54e	-0.006920493
71	0xbdc55da7	-0.096370034
72	0x3dd2c26e	0.10290991
73	0xbd05abe5	-0.032634635
74	0x3e1c85df	0.15285443
75	0xbdca5382	-0.09879209
76	0xbcc15f60	-0.023605049
77	0xbd954696	-0.07288854
78	0xbe13d2bb	-0.14435856
79	0x3d5ed77a	0.054404713
80	0xbd927cd0	-0.07152712
81	0x3cbaeaac	0.022816978
82	0x3de25207	0.11050802
83	0xbd407e2d	-0.04699533
84	0xbdb79490	-0.08963883
85	0xbde5c684	-0.112195045
86	0x3db6a4f0	0.08918178
87	0xbe0bec39	-0.1366433
88	0xbdd81999	-0.10551757
89	0xbcd2e652	-0.02574459
90	0xbcc5a4f3	-0.024126505
91	0xbe243e66	-0.16039428
92	0xbdecaee3	-0.115567945
93	0x3d0e44f2	0.03473372
94	0xbe24e537	-0.16103064
95	0x3e2180b1	0.15771748
96	0xbc55b301	-0.013043166
97	0xbd9c0944	-0.07618955
98	0x3d340ae6	0.043955706
99	0xbd89989a	-0.067185596

fc.bias f4 [2]
0	0xbd3f227f	-0.046663757
1	0x3d461868	0.04836312
