scripts/RaySparse/stock_price_model_ray_sparse.pth (torch, 48026 bytes, 6 tensors)

lstm.weight_ih_l0 f4 [200, 4]
0.11831344 0.0795526 0.13841139 0.0029939578 -0.10669626 -0.08967421 0.023911405 0.029266004
0.014316166 0.05549101 0.017016845 -0.044562124 -0.12950245 0.10720747 -0.104999565 0.029609283
-0.13748373 -0.06446831 -0.10755434 -0.030430298 0.10649441 -0.029186426 0.04745505 0.071633846
-0.07218346 0.14068174 0.14238052 -0.03848674 0.14466606 0.16233464 -0.076434 0.09139664
-0.009787803 0.061192777 0.1631643 -0.015834307 0.112781 -0.071229205 -0.09382903 0.056113236
0.017569633 0.0735649 0.043666396 -0.040633783 0.13371919 -0.09304894 -0.043596778 0.10610166
-0.010820968 0.15633339 -0.10107148 0.072266765 0.10219629 -0.093168676 0.09722174 0.11551549
0.10508877 -0.10248269 -0.14891633 0.0019579611 -0.02156065 -0.04026879 -0.034695443 -0.09787347
-0.14201702 -0.012267303 -0.029698355 0.042992406 -0.09123423 -0.08390716 -0.13936183 0.053967018
0.0785221 0.16035211 -0.10140759 0.15671049 0.14125086 0.09447479 0.041854702 0.019868365
-0.029296415 -0.09572334 0.06753855 0.05221487 0.09363133 0.122481115 0.06657436 -0.02220652
0.16883104 0.12822093 0.08286681 0.10991745 0.07967206 -0.109109044 0.054394994 -0.07014122
-0.06334747 0.02335349 -0.04173137 0.16844864 0.024131652 -0.018741513 0.14889821 -0.09173793
-0.14107509 0.056261208 0.030842863 -0.09438938 0.0673417 0.134207 -0.0017350593 0.031829268
0.059600234 0.097831905 0.020928117 -0.018970976 -0.06794698 0.08990607 -0.012634 -0.07092918
0.11330044 -0.06383122 -0.03757761 -0.06159626 -0.042743508 0.053244434 0.078782715 0.10395251
0.056161072 0.103057146 -0.14087075 -0.0925907 0.059585296 0.048802387 0.15653792 -0.026202295
0.08302151 -0.027556607 0.052623294 -0.077508375 0.08569039 -0.013237857 0.06285611 -0.02116311
-0.121300444 0.051807698 0.060399674 -0.020864451 0.16526018 0.1556677 -0.074063174 -0.009800786
0.03744047 -0.108778626 0.048804395 -0.013273931 0.024282305 0.106108196 0.10102568 0.062373284
0.09061995 0.12337491 0.08264938 -0.010225948 0.08845779 -0.03618632 -0.04622185 -0.08130233
-0.068034925 -0.099316835 -0.10292039 0.06482927 -0.05181626 0.029739046 -0.019891467 -0.05884042
-0.13931061 0.02397374 -0.06234492 -0.15454507 0.119861566 0.15406148 -0.047153104 0.13272096
0.15361995 0.078009956 0.15606359 -0.054608885 0.08691197 0.16640644 0.18376546 0.017086862
0.046874262 -0.042848136 0.13061221 -0.08477381 -0.020418925 -0.13031265 0.033446103 -0.07493956
0.058495384 0.09204762 0.118479244 0.16346787 0.07164396 -0.007565915 -0.12472819 0.035857663
0.08067357 0.15227751 0.050773054 0.17132881 0.10405131 -0.05204767 -0.074399024 -0.10667356
-0.10096301 0.030083762 -0.07575997 0.09552046 -0.06619742 -0.00542352 -0.06793427 0.07425574
0.04300558 0.004586446 -0.04650615 0.14182082 0.12197587 0.071140185 0.028040377 0.00077209406
-0.025241759 0.11121749 0.09769258 0.11527485 0.17923978 -0.092787504 -0.043080393 0.07190422
-0.023237588 -0.061464958 0.07178913 -0.025298117 0.08499882 0.1178773 0.1490015 -0.08904428
-0.083695434 0.097713545 0.10509966 0.1371605 0.17817964 0.17145604 0.17163143 0.14392292
00000000: 514e f23d 79ec a23d b7bb 0d3e 4736 443b
00000010: 9283 dabd 1da7 b7bd dae1 c33c 42bf ef3c
00000020: 5a8e 6a3c 8b4a 633d e966 8b3c c686 36bd
00000030: 4a9c 04be 978f db3d 030a d7bd 2b8f f23c
00000040: 89c8 0cbe f607 84bd 7345 dcbd f648 f9bc
00000050: be19 da3d 5f18 efbc 3a60 423d c4b4 923d
00000060: ecd4 93bd e00e 103e 33cc 113e 46a4 1dbd
00000070: 5723 143e 0d3b 263e 6e89 9cbd 292e bb3d
00000080: 055d 20bc 47a5 7a3d 8b14 273e f3b6 81bc
00000090: baf9 e63d 9ee0 91bd 6f29 c0bd fed6 653d
000000a0: 31ee 8f3c 32a9 963d 89db 323d 9c6f 26bd
000000b0: afed 083e 7190 bebd 8992 32bd d44b d93d
000000c0: 6e4a 31bc dc15 203e 90fe cebd 9900 943d
000000d0: 4a4c d13d 38cf bebd 311c c73d 6393 ec3d
000000e0: c838 d73d 72e2 d1bd 867d 18be 2351 003b
000000f0: f69f b0bc e3f0 24bd cf1c 0ebd e371 c8bd
00000100: e96c 11be ccfc 48bc f749 f3bc ce18 303d
00000110: 03d9 babd 84d7 abbd deb4 0ebe 850c 5d3d
00000120: 32d0 a03d 5833 243e c8ae cfbd b778 203e
00000130: 11a4 103e 007c c13d d66f 2b3d fbc2 a23c
00000140: 09ff efbc 990a c4bd a751 8a3d 42df 553d
00000150: c8c1 bf3d 61d7 fa3d 2358 883d 73ea b5bc
00000160: 0be2 2c3e 594c 033e 13b6 a93d 661c e13d
00000170: 1b2b a33d 9074 dfbd 49cd 5e3d 33a6 8fbd
00000180: 51bc 81bd d14f bf3c 83ee 2abd cd7d 2c3e
00000190: beaf c53c cd87 99bc c678 183e 19e1 bbbd
000001a0: fd75 10be 2772 663d 2caa fc3c 384f c1bd
000001b0: 72ea 893d 8f6d 093e ee6a e3ba 685f 023d
000001c0: 601f 743d 185c c83d 7171 ab3c 0569 9bbc
000001d0: c927 8bbd ac20 b83d d6fe 4ebc 5143 91bd
000001e0: 100a e83d f1b9 82bd fbea 19bd 5c4c 7cbd
000001f0: d113 2fbd d616 5a3d d558 a13d 0ee5 d43d
00000200: 2709 663d a00f d33d 6c40 10be 31a0 bdbd
00000210: b60f 743d 03e5 473d 7a4b 203e 32a6 d6bc
00000220: 2e07 aa3d 65be e1bc 868b 573d b6bc 9ebd
00000230: 717e af3d 99e3 58bc b4ba 803d 425e adbc
00000240: 5e6c f8bd 4f34 543d a665 773d edeb aabc
00000250: f739 293e 5b67 1f3e 6fae 97bd 7a93 20bc
00000260: 2e5b 193d 54c7 debd 1ee7 473d e77a 59bc
00000270: afeb c63c 414f d93d 8de6 ce3d 217b 7f3d
00000280: f496 b93d fcab fc3d 1444 a93d bc8a 27bc
00000290: 5c29 b53d 1b38 14bd 1f53 3dbd d681 a6bd
000002a0: e555 8bbd a066 cbbd edc7 d2bd 35c5 843d
000002b0: 493d 54bd 4d9f f33c 6ef3 a2bc a702 71bd
000002c0: 71a7 0ebe 9464 c43c 635d 7fbd 1041 1ebe
000002d0: fb79 f53d 4bc2 1d3e 9d23 41bd 01e8 073e
000002e0: 8c4e 1d3e afc3 9f3d 22cf 1f3e 91ad 5fbd
000002f0: e7fe b13d 7366 2a3e 032d 3c3e bff9 8b3c
00000300: 3aff 3f3d 8781 2fbd 35bf 053e e49d adbd
00000310: 9745 a7bc ae70 05be c8fe 083d e979 99bd
00000320: db98 6f3d 7683 bc3d 3fa5 f23d 1f64 273e
00000330: 12ba 923d 7feb f7bb 7e71 ffbd 7cdf 123d
00000340: 2f38 a53d a3ee 1b3e 68f7 4f3d d270 2f3e
00000350: da18 d53d f02f 55bd 845e 98bd ab77 dabd
00000360: b2c5 cebd 3972 f63c 0b28 9bbd 3ba0 c33d
00000370: 8392 87bd c9b7 b1bb 1f21 8bbd 6513 983d
00000380: 9e26 303d e649 963b 3c7d 3ebd 7a39 113e
00000390: 7cce f93d f2b1 913d efb4 e53c 5b66 4a3a
000003a0: cec7 cebc ffc5 e33d 0c13 c83d 3815 ec3d
000003b0: a28a 373e 6007 bebd 1175 30bd 8542 933d
000003c0: c15c bebc aec2 7bbd 2e06 933d ff3d cfbc
000003d0: dd13 ae3d a769 f13d d993 183e d95c b6bd
000003e0: 8368 abbd 0a1e c83d 7e3e d73d cd73 0c3e
000003f0: b974 363e 2c92 2f3e 26c0 2f3e 8860 133e

lstm.weight_hh_l0 f4 [200, 50]
-0.0015117254 0.00073011994 -0.13790895 -0.00840527 0.007182999 0.0022389363 -0.0022059244 0.0019393167
-0.0005515745 0.0006031225 -0.00073117175 0.010295478 0.118427746 0.00020258037 0.0021809998 -0.0062023317
-0.003027374 -0.004724437 0.0015838328 -0.1260031 -0.13803144 -0.0019314616 0.0008270437 -0.0078016906
0.00012798146 -0.0005855287 0.13488656 0.0005448825 0.12805192 -0.0003604173 0.004579485 -8.297018e-05
0.0058910926 0.0012062176 0.0017005088 0.14221577 0.0011786377 -0.00066710694 0.15102811 0.0007703981
0.00061303086 0.0013806854 8.179694e-05 0.0002279464 0.005421449 0.002027191 0.0018246211 -0.002480934
-0.0003561078 -0.008346382 0.123014815 -0.00022937407 0.13466027 -0.00014079825 0.0013097066 -0.13583004
-0.1154675 0.13450266 0.00022696238 0.0006732719 0.00058383675 0.12123573 0.00020144902 0.13869259
0.00055676984 -5.118286e-05 0.119258426 -0.0007723117 -0.0002648106 0.00049360987 0.14304666 9.7139506e-05
0.0002399692 -0.119353905 -0.00032711355 -0.1361423 0.0012611691 -0.00046702914 0.14222996 0.11810681
0.15022111 -0.00030788526 -0.00128808 -0.00026569667 0.13914378 0.14583777 0.00020576714 -0.14273818
0.0016519796 -0.13059103 -0.00033309535 -0.00025713074 0.12578136 -0.118676014 0.0003269668 0.0006341438
0.00014909363 -0.00080366957 -0.0005576023 -0.0013449675 -0.1196691 -0.1293385 -0.14261444 0.1444595
0.0042509306 0.0011347727 -0.0012459646 0.0027006185 0.11869155 0.13468878 0.00030541755 0.011411245
0.0002796702 0.13112052 -0.114287235 -0.0029234197 -0.0034107973 0.14559475 0.00041883864 0.11826441
0.00054965017 -0.0009575957 0.0027124556 -0.008027828 -0.00073200505 0.12939498 -0.00038640108 -0.00041224033
0.0017567574 0.00074026774 -0.1428298 -0.00081924174 0.003785947 -0.13231918 0.0006781546 0.16374259
0.00077311805 -0.0013058799 0.005863834 0.0011569766 0.11640661 0.00023016668 0.13785943 0.0010181781
0.004431201 0.14005214 0.00094039104 -0.11859426 -0.0011657561 -0.17268023 0.005597422 0.0032248984
-0.0013619722 -9.701312e-05 -0.00015478984 -0.002071039 0.0040654414 -0.1263209 0.0032517724 -0.12637514
0.0015674159 0.0006549817 0.002369331 0.0033227173 0.00033466695 0.00056169514 -0.15423983 -0.00077933935
0.15657747 0.12263272 -0.001429381 0.0018288471 0.0031533032 -0.121741615 -0.0025947965 0.0021681655
-3.6332975e-05 -0.0033546977 0.14125536 0.005795181 -0.120190255 -0.0029379863 -0.00881589 -0.0023035177
0.15139851 -0.00055428594 -0.0046256953 -0.0027405361 -0.0003855096 0.00020299642 0.11639997 -0.0019202852
0.0039805025 0.0009120289 -0.004596316 0.0025177437 0.11581426 -0.0014758604 -0.0027052327 0.0009609493
-0.0043042065 0.122304685 0.0014188334 -0.0002307018 0.0004950088 0.0019422326 -0.0034247285 -0.0037467892
-0.0028713264 -0.0018295839 -0.0013935753 -9.507596e-05 -0.002265715 -0.0029519307 6.91248e-05 -0.00063557015
0.00028000638 -0.13584943 0.001622225 0.004930221 0.00146841 -0.001751467 -0.0020873176 -0.0020515467
0.002329207 -0.0019690841 -0.00021354956 0.0026793557 0.0021745353 -0.0040939488 0.0006968266 0.14389256
-0.11350182 0.0021425164 0.00152066 4.7290065e-05 0.0033901888 0.0025269827 0.00064157025 -0.11707352
0.0012833916 0.0016875173 -0.13600409 -0.0009852039 0.0026933025 -0.14803599 0.0032605135 0.0013109953
0.0023008788 -0.00033452455 -4.173127e-05 0.0016218693 -0.11994662 -0.006334107 0.0053052395 0.0006377523
00000000: 1625 c6ba 8565 3f3a 0138 0dbe 42b6 09bc
00000010: 5d5f eb3b 1ebb 123b 4591 10bb ac30 fe3a
00000020: 8a97 10ba de1a 1e3a 1bac 3fba 5dae 283c
00000030: 3f8a f23d c16b 5439 1bef 0e3b ee3c cbbb
00000040: e866 46bb 73cf 9abb 9c98 cf3a f506 01be
00000050: 1d58 0dbe 1929 fdba f7cd 583a 53a5 ffbb
00000060: c332 0639 2a7e 19ba b41f 0a3e 72d6 0e3a
00000070: 0b20 033e 64f6 bcb9 810f 963b 4700 aeb8
00000080: 110a c13b f219 9e3a 9be3 de3a 03a1 113e
00000090: 857c 9a3a cae0 2eba 1da7 1a3e 8bf4 493a
000000a0: ceb3 203a 1df8 b43a 668a ab38 e504 6f39
000000b0: 69a6 b13b 9fda 043b 2028 ef3a 2a97 22bb
000000c0: fbb3 bab9 43bf 08bc 31ef fb3d 2284 70b9
000000d0: 62e4 093e 3ea3 13b9 76aa ab3a 0817 0bbe
000000e0: 3a7a ecbd 11bb 093e c0fc 6d39 837e 303a
000000f0: 9f0c 193a 704a f83d 0f3c 5339 6e05 0e3e
00000100: 31f4 113a 2dad 56b8 c33d f43d f674 4aba
00000110: 47d6 8ab9 9965 013a d37a 123e 60b7 cb38
00000120: 3ea0 7b39 d26f f4bd 7080 abb9 e368 0bbe
00000130: d04d a53a 97db f4b9 bba4 113e fce1 f13d
00000140: 90d3 193e a96b a1b9 cbd4 a8ba 344d 8bb9
00000150: b57b 0e3e 7f56 153e 32c3 5739 f529 12be
00000160: 3d87 d83a a8b9 05be 4da3 aeb9 81cf 86b9
00000170: d4cc 003e 690c f3bd be6c ab39 ac3c 263a
00000180: 0456 1c39 5aad 52ba 0f2c 12ba 9f49 b0ba
00000190: 1315 f5bd 5071 04be 8509 12be 31ed 133e
000001a0: 644b 8b3b a7bc 943a a24f a3ba dcfc 303b
000001b0: 8e14 f33d dbeb 093e 7320 a039 3bf6 3a3c
000001c0: b3a0 9239 7544 063e 6d0f eabd d896 3fbb
000001d0: af87 5fbb ca16 153e 9297 db39 9c34 f23d
000001e0: 6616 103a 2907 7bba 74c3 313b 2787 03bc
000001f0: 07e4 3fba 1e80 043e e095 cab9 f621 d8b9
00000200: ff42 e63a 870e 423a fa41 12be 62c2 56ba
00000210: a71d 783b ae7e 07be 2fc6 313a 23ac 273e
00000220: 13ab 4a3a 0f2a abba 6825 c03b b1a5 973a
00000230: 9766 ee3d e658 7139 062b 0d3e 6374 853a
00000240: 9c33 913b d469 0f3e 9384 763a 8ce1 f2bd
00000250: 49cc 98ba 16d3 30be 946a b73b d158 533b
00000260: 3484 b2ba 8673 cbb8 154f 22b9 45ba 07bb
00000270: 6537 853b 445a 01be b01b 553b 7c68 01be
00000280: c071 cd3a 14b3 2b3a c746 1b3b f2c1 593b
00000290: 3d76 af39 b93e 133a 0cf1 1dbe 944c 4cba
000002a0: d855 203e dd26 fb3d 115a bbba edb5 ef3a
000002b0: a6a7 4e3b ab53 f9bd 760d 2abb c817 0e3b
000002c0: 3c64 18b8 7dda 5bbb 3fa5 103e 80e5 bd3b
000002d0: 4f26 f6bd 3b8b 40bb 8670 10bc 9df6 16bb
000002e0: 3608 1b3e 804d 11ba 2593 97bb 919a 33bb
000002f0: 391e cab9 70db 5439 1c63 ee3d 14b2 fbba
00000300: e06e 823b 3915 6f3a b19c 96bb bb00 253b
00000310: 0730 ed3d a871 c1ba 464a 31bb 37e8 7b3a
00000320: 4d0a 8dbb e17a fa3d 26f8 b93a 8be8 71b9
00000330: 7ac3 013a 8392 fe3a 6971 60bb b18c 75bb
00000340: dd2c 3cbb a6ce efba a1a8 b6ba 8463 c7b8
00000350: 647c 14bb 2e75 41bb 18f7 9038 649c 26ba
00000360: d2cd 9239 1d1c 0bbe d7a0 d43a b18d a13b
00000370: aa77 c03a 7b91 e5ba 61cb 08bb 3e73 06bb
00000380: 9ca5 183b c00b 01bb 46ec 5fb9 2198 2f3b
00000390: a682 0e3b 8826 86bb 3eab 363a 9258 133e
000003a0: a473 e8bd 7669 0c3b e250 c73a 5259 4638
000003b0: ee2d 5e3b bc9b 253b 0d2f 283a 3ec4 efbd
000003c0: 7a37 a83a af2f dd3a a844 0bbe f521 81ba
000003d0: 1e82 303b bf96 17be 57ae 553b b4d5 ab3a
000003e0: 57ca 163b 2063 afb9 9c08 2fb8 e794 d43a
000003f0: 93a6 f5bd 578e cfbb 93d7 ad3b d52e 273a

lstm.bias_ih_l0 f4 [200]
0.07972787 -0.050180633 0.15568094 0.044779316 -0.107189 -0.0068763625 0.12936237 0.14592323
-0.051133916 0.11982742 -0.06347801 0.09757511 0.015468118 0.13944168 0.050508894 -0.06669811
-0.089378096 0.022707762 0.12221892 -0.07993458 -0.067202814 0.0877127 -0.005584932 0.056138158
-0.06943164 -0.0555365 0.11307649 0.12601411 0.098679796 0.07270104 0.059572145 -0.046322577
-0.052924525 0.03308789 0.14884697 -0.009671999 -0.03995088 0.090075284 0.022347609 -0.07669296
-0.11218716 0.022797033 -0.07314136 -0.048838574 -0.084120475 0.08117005 0.049148835 0.11286437
0.097007334 0.11098272 0.09837173 0.095367074 0.105871946 0.08092956 -0.0035886483 0.016554428
0.12675859 -0.07666748 0.09774677 0.13159376 0.14234772 -0.048092596 0.09289459 -0.014060038
-0.050062075 0.07274108 0.07119029 -0.09773192 0.115787156 -0.052037917 -0.07267743 -0.015426036
-0.062108777 0.0220023 0.0529611 0.051676568 0.07893449 0.10194997 0.08292879 0.08973944
-0.0930095 -0.06654958 0.03361796 -0.01208091 -0.038154945 0.03866802 0.13323785 0.11957505
-0.14373685 -0.08931973 -0.019856257 -0.107590675 -0.13006957 -0.06453532 -0.02819689 0.09495806
0.022261338 0.047739975 0.09445292 0.08057104 -0.031556748 0.0014910322 -0.06080183 0.056593172
-0.10437441 -0.120356575 0.055908557 -0.0145342685 0.050980076 -0.0013121814 0.13003731 -0.09850152
0.121414974 -0.07434814 -0.053699434 0.038031302 0.03859307 0.07808639 -0.117073484 -0.11791078
-0.05557677 0.09154118 0.11394636 -0.03095118 -0.047309797 0.04321017 0.09153992 -0.09957575
-0.14308012 0.055454604 -0.099211186 0.034053303 0.06375821 -0.09019203 -0.094814375 -0.089153305
0.095145896 0.030333433 -0.09088153 0.050411426 -0.121327974 -0.10337952 0.12402921 -0.019788906
-0.15414117 -0.12481811 -0.09393934 -0.04661923 -0.11615546 0.023798678 0.1420125 -0.06879675
0.09515393 -0.042500354 0.016837476 0.082042 -0.028949656 0.070882104 0.06867709 0.11964814
0.1437043 0.027317993 0.105875425 0.009896913 0.014417924 0.04496305 -0.1461005 -0.110452786
0.14382614 -0.029540408 0.050436646 -0.03557931 0.08950395 0.13595134 -0.112474814 0.084270164
-0.0277948 -0.005583864 -0.12735239 -0.09895561 0.07519965 -0.11911928 -0.05815058 -0.0453589
-0.09527661 -0.1248078 -0.1394635 0.10592241 -0.07148023 -0.1444903 0.036351696 -0.044130687
0.026184337 0.053864475 0.13169825 0.034808937 -0.032766722 0.040541623 -0.03717329 0.048332945
00000000: 5e48 a33d 358a 4dbd d36a 1f3e 846a 373d
00000010: e885 dbbd 1c53 e1bb 9277 043e e66c 153e
00000020: cc71 51bd 1468 f53d c200 82bd 76d5 c73d
00000030: fd6d 7d3c cdc9 0e3e 6ae2 4e3d 0599 88bd
00000040: dd0b b7bd a105 ba3c ea4d fa3d beb4 a3bd
00000050: a1a1 89bd b7a2 b33d ce01 b7bb 20f1 653d
00000060: 2d32 8ebd 3e7a 63bd a694 e73d d809 013e
00000070: a218 ca3d 48e4 943d ec01 743d bebc 3dbd
00000080: 63c7 58bd 2b87 073d 576b 183e 4e77 1ebc
00000090: 89a3 23bd 6479 b83d 5512 b73c 3311 9dbd
000000a0: 62c2 e5bd d8c0 ba3c 23cb 95bd f50a 48bd
000000b0: 5b47 acbd 7c3c a63d 4a50 493d 6f25 e73d
000000c0: c8ab c63d e94a e33d 1e77 c93d d04f c33d
000000d0: 64d3 d83d 66be a53d 872f 6bbb 279d 873c
000000e0: 01cd 013e d703 9dbd 752f c83d 84c0 063e
000000f0: 9ac3 113e befc 44bd 853f be3d 135c 66bc
00000100: e40d 4dbd 46f9 943d 37cc 913d ac27 c8bd
00000110: d121 ed3d b625 55bd e8d7 94bd 7cbd 7cbc
00000120: c665 7ebd 2b3e b43c bded 583d cfaa 533d
00000130: 68a8 a13d 25cb d03d 92d6 a93d 50c9 b73d
00000140: c47b bebd 254b 88bd fcb2 093d 02ef 45bc
00000150: 5c48 1cbd 5c62 1e3d 816f 083e c4e3 f43d
00000160: c12f 13be 43ed b6bd 97a9 a2bc 8058 dcbd
00000170: f530 05be 182b 84bd 2afd e6bc 5f79 c23d
00000180: 695d b63c fe8a 433d 8870 c13d 6e02 a53d
00000190: a641 01bd bd6e c33a 570b 79bd 3ece 673d
000001a0: 40c2 d5bd 827d f6bd 5f00 653d 2421 6ebc
000001b0: 7cd0 503d 80fd abba 8028 053e 2abb c9bd
000001c0: 6aa8 f83d d643 98bd f0f3 5bbd b6c6 1b3d
000001d0: c413 1e3d c2eb 9f3d 39c4 efbd 357b f1bd
000001e0: 78a4 63bd f179 bb3d b65c e93d 548d fdbc
000001f0: ebc7 41bd 26fd 303d 4879 bb3d 5fee cbbd
00000200: 9883 12be 5e24 633d 3c2f cbbd 7a7b 0b3d
00000210: aa93 823d 99b6 b8bd 0a2e c2bd 0296 b6bd
00000220: dadb c23d d27d f83c 1820 babd 367c 4e3d
00000230: cd7a f8bd a4b8 d3bd 0703 fe3d 581c a2bc
00000240: 2fd7 1dbe a3a0 ffbd 4563 c0bd cef3 3ebd
00000250: eae2 edbd 72f5 c23c ba6b 113e 4fe5 8cbd
00000260: 10e0 c23d da14 2ebd bfee 893c a305 a83d
00000270: d427 edbc a32a 913d 93a6 8c3d 160a f53d
00000280: 3827 133e fcc9 df3c 37d5 d83d a926 223c
00000290: 2839 6c3c 2d2b 383d 5f9b 15be 1235 e2bd
000002a0: 2947 133e bafe f1bc a896 4e3d 9cbb 11bd
000002b0: d94d b73d d436 0b3e 3259 e6bd d695 ac3d
000002c0: ecb1 e3bc d9f8 b6bb aa68 02be 3da9 cabd
000002d0: 4602 9a3d cff4 f3bd 4d2f 6ebd 41ca 39bd
000002e0: 6220 c3bd 3b9b ffbd 85cf 0ebe d9ed d83d
000002f0: 3a64 92bd 44f5 13be 84e5 143d 61c2 34bd
00000300: 8980 d63c ffa0 5c3d e8db 063e d193 0e3d
00000310: 6636 06bd f90e 263d 0543 18bd c4f8 453d

lstm.bias_hh_l0 f4 [200]
0.027892103 -0.07978733 -0.0390141 -0.102735795 -0.08488996 0.007827913 -0.009284999 0.03969446
0.13855161 0.032189857 0.05788591 0.088914916 0.074967176 -0.10052904 -0.09421457 0.041585978
0.058480658 -0.024331411 0.10818488 0.123135254 0.08050192 0.07465064 -0.035547316 -0.07190996
-0.07833152 0.014575938 -0.12171898 0.06736212 0.0555773 0.019522712 0.04213463 -0.06868139
0.026968254 -0.05435105 0.026827995 0.0319861 -0.045549184 0.099477164 -0.15412012 -0.028604612
-0.09103194 0.050748788 0.1238113 0.041956212 0.0435706 -0.0633018 -0.11712782 0.051516216
-0.05758889 -0.101776145 0.123341136 -0.09225897 0.064181365 -0.13549693 0.080921404 -0.11674144
0.08907084 -0.07032751 0.036256164 -0.10074551 0.1583472 0.057614345 0.12678719 -0.10128589
0.005614574 -0.054982945 -0.017935907 -0.05596267 -0.038151372 0.0025652305 0.089111835 0.038437102
0.05848901 0.14943922 0.12953204 0.04817924 0.10072249 -0.09753943 0.12236979 -0.035723753
-0.087667204 -0.07273214 0.13285023 0.09262193 0.06713545 -0.11541342 0.054508798 -0.017925669
0.10771523 0.10110362 -0.11031504 0.08489822 -0.045332782 0.023727395 0.12730409 -0.0033366587
0.09435497 0.10840284 -0.018957116 -0.14301912 0.11229732 -0.08945933 -0.08311653 0.10302117
-0.08732583 -0.10750161 0.06371086 -0.023759466 0.0682591 0.08609316 0.115357555 -0.01964049
-0.07063767 0.08322652 -0.110789925 0.034363687 0.061645143 0.118027195 -0.033211984 -0.10926761
-0.13086507 0.1477228 -0.04714153 0.16670796 -0.009319175 0.08598195 0.10521794 -0.059833102
-0.10664755 0.029167553 -0.11576256 -0.03355445 -0.09952526 -0.12046254 -0.12249336 0.08802071
-0.12132412 0.013848562 -0.07437339 0.099949256 -0.09869845 -0.1354263 -0.10841406 0.07438825
0.056985617 0.06858154 -0.06529282 0.07348778 0.06258083 -0.020960985 -0.05601245 -0.012011175
-0.030345382 -0.11008461 0.049575932 0.12964916 -0.044390567 0.018741986 0.07228505 0.025140056
0.14342368 -0.055315837 -0.07480947 0.002076327 -0.097081564 -0.078599386 -0.105536364 0.11858774
0.07691907 0.08021692 0.10781001 -0.05518838 0.12374531 0.17364399 -0.0074594184 -0.0684233
-0.102204666 0.088337235 0.049541607 -0.051680166 -0.10960146 -0.10468159 0.017718926 -0.010333846
0.073264346 -0.16018866 -0.11210183 -0.092475526 0.08655035 -0.018787822 0.06964606 0.033453565
0.017054485 -0.08094329 0.068695284 -0.05429957 0.014652214 -0.08414748 0.07666843 0.011261247
00000000: fb7d e43c 8a67 a3bd 40cd 1fbd 2567 d2bd
00000010: cada adbd a640 003c 1c20 18bc a896 223d
00000020: 79e0 0d3e 83d9 033d c719 6d3d 0619 b63d
00000030: 6488 993d 2be2 cdbd 92f3 c0bd 0f56 2a3d
00000040: 6a89 6f3d ab52 c7bc 0990 dd3d 562e fc3d
00000050: 31de a43d 6fe2 983d 109a 11bd 8745 93bd
00000060: 476c a0bd eacf 6e3c cd47 f9bd 27f5 893d
00000070: 06a5 633d 18ee 9f3c 5d95 2c3d d4a8 8cbd
00000080: 87ec dc3c 359f 5ebd 62c6 db3c db03 033d
00000090: c891 3abd afba cb3d aad1 1dbe 3854 eabc
000000a0: f46e babd f6dd 4f3d c790 fd3d 47da 2b3d
000000b0: 1677 323d 60a4 81bd b6e0 efbd ab02 533d
000000c0: 54e2 6bbd 0370 d0bd 479a fc3d 45f2 bcbd
000000d0: 8571 833d b5bf 0abe 1fba a53d 2316 efbd
000000e0: c66a b63d df07 90bd 5881 143d a953 cebd
000000f0: c525 223e 05fd 6b3d 80d4 013e fa6e cfbd
00000100: 76fa b73b cc35 61bd 53ee 92bc 1d39 65bd
00000110: 9d44 1cbd 6d1d 283b 4480 b63d 3970 1d3d
00000120: 2c92 6f3d 9806 193e 0ca4 043e 9857 453d
00000130: 9847 ce3d c1c2 c7bd 039d fa3d 1253 12bd
00000140: dd8a b3bd 97f4 94bd e409 083e 91b0 bd3d
00000150: 507e 893d df5d ecbd 9e44 5f3d dad8 92bc
00000160: cd99 dc3d 6a0f cf3d daec e1bd 1edf ad3d
00000170: deae 39bd f45f c23c 015c 023e d8ab 5abb
00000180: 2e3d c13d 4f02 de3d f44b 9bbc 9b73 12be
00000190: 23fc e53d 7436 b7bd 0039 aabd c3fc d23d
000001a0: e2d7 b2bd ce29 dcbd d77a 823d 36a3 c2bc
000001b0: 6dcb 8b3d 9c51 b03d 9540 ec3d 18e5 a0bc
000001c0: 7caa 90bd aa72 aa3d d4e5 e2bd f0c0 0c3d
000001d0: 9e7f 7c3d 3eb8 f13d 4a09 08bd b2c7 dfbd
000001e0: 7e01 06be a544 173e 7a17 41bd 7eb5 2a3e
000001f0: 74af 18bc 4e17 b03d 817c d73d 8e13 75bd
00000200: 086a dabd cbf0 ee3c ec14 edbd 6470 09bd
00000210: e6d3 cbbd 10b5 f6bd ccdd fabd 3444 b43d
00000220: c878 f8bd 14e5 623c 1351 98bd 32b2 cc3d
00000230: 6a22 cabd 31ad 0abe 3108 debd de58 983d
00000240: c069 693d 7a74 8c3d 3eb8 85bd c380 963d
00000250: 612a 803d 5fb6 abbc 506d 65bd 85ca 44bc
00000260: e196 f8bc 0a74 e1bd 2210 4b3d c0c2 043e
00000270: e2d2 35bd cb88 993c 2f0a 943d 85f2 cd3c
00000280: a8dd 123e dc92 62bd b535 99bd fd12 083b
00000290: b3d2 c6bd b7f8 a0bd 7323 d8bd 21de f23d
000002a0: bf87 9d3d c548 a43d 7fcb dc3d 360d 62bd
000002b0: 2e6e fd3d bbcf 313e 236e f4bb 8421 8cbd
000002c0: ae50 d1bd 27ea b43d 24ec 4a3d 95ae 53bd
000002d0: bb76 e0bd 4d63 d6bd 4827 913c 4b4f 29bc
000002e0: 9e0b 963d 7f08 24be a595 e5bd cf63 bdbd
000002f0: 4f41 b13d ebe8 99bc 98a2 8e3d 9b06 093d
00000300: d9b5 8b3c 98c5 a5bd 1db0 8c3d 3a69 5ebd
00000310: d70f 703c 8455 acbd 5604 9d3d 1881 383c

fc.weight f4 [2, 50]
0.07480191 0.08898565 -0.0634118 -0.019392896 -0.025702909 0.05611384 -0.02098925 0.13826044
0.06726906 0.15544645 0.16460922 0.12672113 0.10594091 0.07880063 -0.14420106 0.12743847
0.019228177 -0.084770665 -0.030587982 -0.118122034 0.08390819 -0.044482473 0.08386549 -0.11811261
-0.11280242 0.08322227 -0.009094316 -0.10705595 -0.1197374 0.074405245 0.041884843 0.014245544
0.022773298 0.056715563 -0.02984929 -0.09400189 -0.11082993 -0.042921323 0.049404755 0.09849985
-0.07529004 -0.084706195 0.11693485 0.094280586 -0.030213917 0.06427971 -0.1409047 -0.12444606
-0.11645355 0.054802474 0.042549953 -0.016832829 -0.014293549 -0.12019466 0.10131829 -0.08441238
0.15809947 0.017802214 -0.010477103 0.114729755 0.095594294 0.11255537 0.16165204 0.13883354
0.085254565 -0.10834082 -0.101533316 -0.083127394 -0.08369835 0.033811025 -0.14351012 0.051227007
0.03958704 0.005389555 -0.09966077 0.16053288 -0.09064827 -0.08812137 0.008881333 0.12674555
0.05489336 -0.15075044 -0.048988413 -0.12719144 -0.055762727 -0.01059675 0.090973705 -0.10729072
-0.03683371 -0.055331744 0.019540144 -0.02291611 0.0892992 -0.099015735 -0.06097334 0.12932576
-0.07447578 -0.023118658 -0.030512122 0.012231621
00000000: be31 993d 1c3e b63d 0cde 81bd dadd 9ebc
00000010: e88e d2bc a0d7 653d a6f1 abbc 2594 0d3e
00000020: 5cc4 893d 5b2d 1f3e 528f 283e 2fc3 013e
00000030: 8cf7 d83d 3a62 a13d 71a9 13be 3b7f 023e
00000040: 6984 9d3c 3e9c adbd a693 fabc f7e9 f1bd
00000050: 0fd8 ab3d 4133 36bd acc1 ab3d 06e5 f1bd
00000060: f504 e7bd 7070 aa3d 5300 15bc 2640 dbbd
00000070: e238 f5bd c761 983d 718f 2b3d 2466 693c
00000080: 118f ba3c 944e 683d 8086 f4bc 1084 c0bd
00000090: cdfa e2bd 45ce 2fbd a45c 4a3d 4aba c93d
000000a0: aa31 9abd 717a adbd 8a7b ef3d 2e16 c13d
000000b0: 2d83 f7bc 15a5 833d 5249 10be 93dd febd
000000c0: 337f eebd 8f78 603d dc48 2e3d 00e5 89bc
000000d0: 7d2f 6abc 9e28 f6bd f77f cf3d 66e0 acbd
000000e0: d4e4 213e f3d5 913c 28a8 2bbc 6ff7 ea3d
000000f0: f1c6 c33d 6e83 e63d 1d88 253e 612a 0e3e
00000100: f299 ae3d cbe1 ddbd b3f0 cfbd b23e aabd
00000110: 0a6a abbd 6e7d 0a3d 51f4 12be 69d3 513d
00000120: 0526 223d dd9a b03b f21a ccbd bb62 243e
00000130: cda5 b9bd fa78 b4bd 0383 113c 96c9 013e
00000140: dcd7 603d 535e 1abe 13a8 48bd 793e 02be
00000150: 7567 64bd fe9d 2dbc 6c50 ba3d 3dbb dbbd
00000160: f2de 16bd 8aa3 62bd a712 a03c 91ba bbbc
00000170: 80e2 b63d c3c8 cabd 2ebf 79bd f96d 043e
00000180: c286 98bd 5763 bdbc 8ff4 f9bc 2367 483c

fc.bias f4 [2]
-0.06996035 -0.11531534
00000000: 5f47 8fbd 732a ecbd
